model_test_models/slip_rnn.pt (torch, 7082 bytes, 5 tensors)

rnn.weight_ih_l0 f4 [32, 1]
000000 86 d5 c7 3d e4 8a 11 3e 46 3e 18 be 8a 83 67 be
       0.09757523 0.14213139 -0.14867505 -0.22608772
000010 be 87 84 be 58 1c 46 3d 76 74 f8 3d b1 df ce 3d
       -0.25884813 0.048366874 0.12131588 0.101012595
000020 db 27 2c be ce 6d ee 3d 3d 2d bd bc 03 03 8e 3e
       -0.16812079 0.11642037 -0.02309286 0.27736673
000030 39 8f 41 3d 19 56 11 3e 1f 3e 30 be 3d 40 89 bd
       0.04725573 0.14193 -0.17211197 -0.067017056
000040 b3 95 23 3e eb ab d7 bc 98 a9 a5 3d 5b 48 41 3e
       0.15975074 -0.026327094 0.08088988 0.18875258
000050 c7 80 46 3d 77 48 cf be 91 35 b3 3e 8f 8e 82 3e
       0.048462655 -0.40484974 0.35001805 0.2549939
000060 e7 0b 10 3e 2f a6 78 bd 32 30 70 be 7f 1d c2 bc
       0.1406704 -0.06070536 -0.23455885 -0.023695705
000070 d1 dc 83 be 1d c1 8b be 75 ad 9f bd d4 bf 47 3c
       -0.25754407 -0.2729577 -0.07796756 0.0121917315

rnn.weight_hh_l0 f4 [32, 32]
000000 ec 7b 26 bd 1b c6 87 bd d9 69 23 be 1c 5e b1 bc
       -0.040645525 -0.066295825 -0.15958346 -0.02165132
000010 80 30 b4 3d 26 19 7b 3c 46 7e 37 3d 06 f4 96 bc
       0.08798313 0.01532582 0.044798158 -0.018426906
000020 a5 3f dd 3d 73 f9 05 bd fb 45 75 3e f2 64 57 bb
       0.10803155 -0.032708596 0.23952477 -0.0032866565
000030 5c 9b fa 3d 4f cc d2 bd 5c 2e bc 3d fc cb a0 bd
       0.12236664 -0.10292875 0.0918853 -0.07851407
000040 e7 d1 ef bd 04 18 cf bd 99 b3 2b 3e 35 f8 91 3d
       -0.117099576 -0.101120025 0.1676773 0.0712742
000050 0e 6a 2a 3e 8d 80 aa bd 15 23 0d bd ca 7c 2e 3e
       0.16642019 -0.083253 -0.034457285 0.17039791
000060 06 2d 76 be 29 22 79 bd 4c 98 e5 bc 6d 0f 3c bd
       -0.24040613 -0.060823593 -0.028026722 -0.04591315
000070 47 c2 87 3d 4d e2 ee bd 3a f7 59 bc a6 80 82 3c
       0.06628852 -0.11664257 -0.013303572 0.015930485
000080 59 c5 0f be 7f 9d 38 3e 92 6c 45 be db 9b d9 bd
       -0.14040126 0.1802883 -0.19279698 -0.1062543
000090 96 e4 80 bc ee 06 1c be 31 f2 e7 bc 4c a4 73 bd
       -0.015733998 -0.15237018 -0.028313728 -0.059482858
0000a0 cd 39 44 be bb 65 a6 bb 86 35 be bd fd 5e 05 3e
       -0.19162674 -0.005078045 -0.092875525 0.13024516
0000b0 88 16 0d 3e 23 0b ca 3d be c3 ea bd 37 e7 b1 3d
       0.13778126 0.098654054 -0.11463116 0.08686679
0000c0 e9 01 15 bc 74 69 4c 3e 47 53 ea 3d 2a cc 2a be
       -0.009094694 0.19962102 0.11441665 -0.16679445
0000d0 88 c8 58 ba 50 21 ce bd 0c 8b 38 3e e4 36 1c be
       -0.00082696276 -0.100649476 0.18021792 -0.15255314
0000e0 bb ee 41 3e dd 04 2a 3d 06 6c 2c 3e f5 52 33 3e
       0.18938725 0.041508544 0.16838083 0.17512114
0000f0 d7 ac 78 be 0b 7c 5b 3d d2 9f e2 bd db db 60 bd
       -0.24284683 0.053585093 -0.110656396 -0.05489717
000100 ba 18 ef bb 62 4f 49 3b d4 21 42 be 50 c4 e7 bd
       -0.007296649 0.0030717482 -0.18958217 -0.113167405
000110 80 23 bd 3c b1 f3 04 3e 46 8b 10 bd dc 20 0d bd
       0.023088217 0.12983586 -0.03528907 -0.034455165
000120 a3 f9 42 be b5 31 6f 3e e1 00 50 3d 5b 16 31 3d
       -0.19040541 0.23358805 0.05078209 0.04323421
000130 70 c9 1b 3e db e2 5f 3e 7a 59 8a bd 3e 6d 68 3e
       0.15213561 0.21863882 -0.067553475 0.22697923
000140 ac dc 1c 3e 24 41 1d 3e 08 23 22 3d ff ab b4 bc
       0.15318555 0.1535688 0.03958419 -0.02205467
000150 d1 f9 2e 3e fa 58 03 be 11 f4 5e 3e 50 7e 26 bc
       0.17087485 -0.1282691 0.21772791 -0.010161951
000160 03 2f 93 3e b2 2f 68 be 2a dc f0 3c 4b 06 a6 bd
       0.28746805 -0.22674444 0.029401857 -0.08106669
000170 19 29 1c 3d 79 34 9d bd 67 5e d7 3d 63 24 24 be
       0.03812513 -0.07676024 0.10516053 -0.16029505
000180 0b 0a 4f be 51 73 5b 3e 9d 27 2f 3e 7c 58 42 3d
       -0.20218675 0.21430708 0.17104955 0.047447667
000190 91 5b bd 3d a0 a0 04 3e 9c b5 c4 3c 6c 75 06 be
       0.092459805 0.12951899 0.02401238 -0.1313073
0001a0 99 68 50 bc 8d 3a 1e bd 35 ab 1d 3e 31 76 af bc
       -0.0127202505 -0.038630057 0.15397342 -0.021418663
0001b0 df 1f 25 3e 0b ef 0f 3e d1 d3 67 bd e5 5e 45 3e
       0.16125439 0.14056031 -0.05659849 0.1927448
0001c0 e6 33 f5 3d a3 29 e6 3d 77 fd e3 bd 4c a5 0e 3e
       0.119727895 0.1123841 -0.11132329 0.13930243
0001d0 ed a5 55 bc e3 93 48 3c e9 71 0b be 7a 4f 6a bd
       -0.013040048 0.01224229 -0.13617672 -0.0572047
0001e0 05 bd 07 be f6 a3 9d bd ef 30 30 3e 92 5a 09 3e
       -0.13255699 -0.07697289 0.17206167 0.13413456
0001f0 1c ed 67 3d ed 6f 0f 3e 79 09 71 bc f2 38 52 3e
       0.05662261 0.1400754 -0.014711731 0.20529535
000200 db ed 59 3e ec 78 4f bc b5 8c f6 bd 4b 2f d9 3d
       0.21282141 -0.012663107 -0.120385565 0.106047235
000210 75 a6 d0 3d 19 eb 52 bd 52 01 b2 bd 23 09 53 3d
       0.10187999 -0.051493738 -0.08691658 0.051522385
000220 6c e9 54 3d 47 37 2b be ec b3 48 bd 74 f9 1c 3c
       0.05198042 -0.16720305 -0.048999712 0.009580959
000230 d2 72 8b 3d ed 61 15 3e 2a e1 43 3e 0d 1c b6 3d
       0.068090096 0.14588137 0.19128862 0.08892069
000240 2e 43 3d 3e 03 71 23 be 09 b6 b2 bd 5c c8 09 3d
       0.18482658 -0.1596108 -0.08726127 0.033638343
000250 cc 13 4b 3d 74 c7 af 3d 10 da 7e bd 76 2b 67 3b
       0.049579427 0.085829645 -0.06221968 0.0035273707
000260 9a 1b 8d bc 8f 17 90 3d 9b 52 b8 3d 2f 4a c6 bd
       -0.017225076 0.070357434 0.09000131 -0.09682118
000270 a2 fa 35 3e 74 6f f1 bd fc d6 bd 38 22 d0 ae 3c
       0.1777139 -0.11788836 9.052266e-05 0.02133948
000280 20 e8 51 3e 90 5e a9 3d f5 21 c9 3d 0c 4a ee bd
       0.20498705 0.082699895 0.0982093 -0.11635217
000290 1d 93 1e 3e 33 39 57 3d 2e 7b 72 3d dd 2b 96 3d
       0.15485807 0.052544784 0.059199505 0.07332585
0002a0 ec 51 0b be 99 96 52 3e bf e4 3d be 8b 3d 17 3d
       -0.1360547 0.20565261 -0.18544291 0.036923926
0002b0 7f 79 1d 3e 7f 3f b1 3c 91 71 ff bd 13 ed c4 bc
       0.15378378 0.021636723 -0.12472833 -0.024038827
0002c0 17 86 8c bd 64 e3 95 bc d0 e6 00 be 87 fe e6 3d
       -0.06861513 -0.018296905 -0.12588048 0.11279016
0002d0 79 bd f1 3d c7 5f af 3c 70 3f 79 bc 99 ae 5e 3d
       0.11803717 0.021407975 -0.015212879 0.054365728
0002e0 4b b6 5d 3e 8a ff cd bd 56 8a fd bd 8f 4e 95 3d
       0.2165157 -0.10058506 -0.12379901 0.072903745
0002f0 e5 f7 c5 bc e7 4d a5 bd 16 5b 2d 3e 3b 98 06 be
       -0.024166057 -0.08071499 0.16929278 -0.13144009
000300 43 9f 95 bd 0b 10 19 be 92 96 0b be 7a e6 a7 3c
       -0.073057674 -0.14947526 -0.13631657 0.020495642
000310 59 fd 25 3e 36 38 94 bd 47 3b e9 3d 4c 4b 06 be
       0.16209926 -0.07237284 0.113882594 -0.13114661
000320 6b 26 59 3d 12 e8 f7 bd 64 77 2d 3d 33 68 2a 3a
       0.053015154 -0.12104811 0.042350188 0.0006500512
000330 35 b3 e6 bd 9b fe ee 3c 9e c9 ba 3d 29 91 15 bd
       -0.1126465 0.02917414 0.09120487 -0.03651539
000340 99 ff 8e 3d 88 ca 18 3e 04 24 f7 3d 48 8f f5 bd
       0.06982345 0.1492101 0.12067416 -0.11990219
000350 ed 97 a6 bd 9f 82 b6 3d 17 bf d7 bd 31 83 49 be
       -0.08134446 0.08911633 -0.10534494 -0.19678952
000360 9d 26 7b bd e5 2d c2 3d 82 2c 1b bb 22 5a c8 bd
       -0.06131612 0.0948141 -0.0023677652 -0.097828165
000370 1b 70 bb 3c 43 45 93 bd 1b 17 ce 3d 4e ec 02 3e
       0.022880604 -0.07190945 0.10063001 0.12785456
000380 ee 5a 02 3d ac fe ff 3d 1c 4d 5e bc 71 be 52 3d
       0.031825 0.12499747 -0.013568189 0.05145115
000390 34 19 4f 3e 4b 0b 9a bd 6e e3 30 3e 14 2d fc 3d
       0.20224458 -0.07521685 0.17274258 0.123132855
0003a0 74 f7 0b 3e fb 79 c7 bd 7b 87 76 3d 86 be e0 bc
       0.13668615 -0.09740063 0.060187798 -0.027434599
0003b0 e0 7a 29 3e f7 2c 8c 3d fd 39 82 3d c2 0a 59 3d
       0.1655078 0.06844514 0.06358717 0.052988775
0003c0 dd ef 00 be 3a 99 b7 3d 7e aa 75 bd ea f2 35 be
       -0.125915 0.089647725 -0.059977047 -0.17768446
0003d0 5a 58 1c 3e dd 1d 17 3e 68 4a 8d bd 41 7c 5a be
       0.15268078 0.14757486 -0.068989575 -0.21336462
0003e0 28 61 66 bd 48 36 06 be 17 d9 b7 bd eb fd c2 bd
       -0.056245 -0.13106644 -0.089769535 -0.09521087
0003f0 15 f3 8a 3e 43 c7 46 3e d7 eb ba bc f1 2c f2 3d
       0.27138582 0.1941195 -0.022817535 0.11824978

rnn.bias_ih_l0 f4 [32]
000000 3a 6e c3 bd 4d 25 96 3d 9f 1e 29 be c1 e5 9c 3d
       -0.095425084 0.07331333 -0.16515587 0.076610096
000010 9f fe 56 3d 0a 52 20 be 81 a3 0e bd 94 b5 0f 3d
       0.05248892 -0.15656295 -0.0348239 0.035085276
000020 8a 72 01 bd 8f 29 8c bd 54 b6 39 be 7d df d7 bd
       -0.031603374 -0.06843864 -0.18135959 -0.10540674
000030 33 30 d2 3c 00 21 1f 3e 9b 48 7b bc 09 3e 1a bb
       0.025657749 0.15539932 -0.015337135 -0.002353551
000040 f8 8b 84 3e 36 d5 a3 bd 0c d2 81 bd 78 63 32 be
       0.25888038 -0.07999651 -0.063388914 -0.17420757
000050 a9 1c 15 be 65 09 29 3e 37 b7 08 bc 61 cf b2 3d
       -0.14561714 0.1650749 -0.008344463 0.08730961
000060 7b 6d 10 3e 1f ca 89 3d c4 7c 09 be 72 9a 50 3d
       0.14104263 0.06728005 -0.134265 0.05092854
000070 76 68 80 bd b4 c5 a4 3d 12 0f 40 3e 1d bd 0b be
       -0.06269924 0.080455214 0.18755749 -0.1364636

rnn.bias_hh_l0 f4 [32]
000000 71 fd 92 3d 47 1d 5f bc ee 6a a4 bc 80 5f 9b 3d
       0.07177246 -0.01361782 -0.02007052 0.075865746
000010 5e 7d dd bd 30 9b 18 3e 3f 0a 3c 3d c7 9f e2 bc
       -0.108149275 0.1490295 0.04590821 -0.027664078
000020 e6 8c fe 3b 2a eb 95 3d 6c 1d 70 3d be fb 6b be
       0.0077682612 0.073202446 0.05862181 -0.23045251
000030 e2 dd 16 3d ca 3d 1d 3e bd 4d 53 3d c7 8d 3c bc
       0.036832698 0.15355602 0.05158781 -0.011508412
000040 fc 35 3e bc 5d d2 4b bb 0f 29 99 3d 6c 97 e0 bd
       -0.011609551 -0.0031100728 0.074785344 -0.109663814
000050 dc 26 14 be 2a 8f 32 3e be 52 f1 bd c4 80 5a bc
       -0.14467949 0.17437425 -0.1178336 -0.013336364
000060 12 18 c6 bc e3 15 2d be 99 f8 b0 bd 3d b9 d4 3d
       -0.0241814 -0.1690288 -0.08641166 0.10386894
000070 75 29 a2 bd 04 68 41 3e d5 a1 e0 3d 1c f8 fb 3d
       -0.079180636 0.18887335 0.10968367 0.123031825

fc.weight f4 [1, 32]
000000 ad 52 8d be 70 90 e3 3e 60 2a 67 3e 5d 64 32 3e
       -0.2760214 0.44446135 0.22574759 0.17421098
000010 b7 49 b6 be 43 22 a2 3e 46 df 8a 3d 55 27 31 3e
       -0.35603115 0.31666765 0.06780867 0.1730016
000020 9b 85 23 be 1e 76 4f be 55 60 f4 3d a1 d7 fc 3e
       -0.15968935 -0.20259902 0.119324364 0.49383262
000030 b9 cc 90 be 7c 29 a9 be 11 32 3b bd 6f d3 83 3c
       -0.2828119 -0.33039463 -0.045702044 0.01609203
000040 45 cc b8 be e2 f8 ce 3d fc 1f 5a 3d ab c0 29 3d
       -0.36093345 0.101060644 0.05325316 0.041443508
000050 d3 45 d0 3e e1 60 eb be d1 fa 90 3c 3c 37 7a 3e
       0.40678272 -0.4597235 0.017697724 0.24435133
000060 7d a4 c9 bb 1a 9f 3f be cf 7b 9e be cb 34 a4 be
       -0.0061536417 -0.18713036 -0.30953833 -0.32071528
000070 4e 0b 98 be 83 c6 e7 be 88 12 44 be a7 00 db 3e
       -0.29696125 -0.4526864 -0.19147694 0.42773935
