model_test_models/slip_lstm.pt (torch, 20531 bytes, 5 tensors)

lstm.weight_ih_l0 f4 [128, 1]
000000 2f f8 9a 3c 2c 51 95 3e 46 34 82 be 9c d0 d6 3d
       0.018917171 0.29163492 -0.25430506 0.10489008
000010 08 bf b4 bc 64 14 65 be d4 5a 03 3e f5 c4 c2 3e
       -0.022063747 -0.2237106 0.12827617 0.3804089
000020 76 cb 54 3c 43 a9 48 bc f5 65 c6 be bc a6 fd bd
       0.012987962 -0.012247386 -0.38749662 -0.12385318
000030 1c 54 8b 3d 9d df 38 bd fe f0 03 bc e4 ea 2e 3e
       0.06803152 -0.04513513 -0.0080530625 0.17081791
000040 2c e6 e0 3d 37 73 88 be 0e 00 0d 3e bf 6d 87 3d
       0.10981402 -0.26650402 0.13769552 0.06612729
000050 8f f5 24 bd 7d 38 13 be 79 cf 42 bd fc 8b b7 bd
       -0.040273245 -0.14377017 -0.047561143 -0.08962247
000060 1e f8 02 3e 1c d4 db 3d b3 71 1c 3d d0 fc b8 bd
       0.12789962 0.10733816 0.03819437 -0.09032595
000070 e0 da 12 3e 26 eb 02 be 79 d9 ae 3d 71 b4 19 be
       0.14341307 -0.12785015 0.08537573 -0.15010239
000080 ed a2 25 3e cd a7 3f 3e d9 91 8f bd 6b c8 7f bd
       0.16175433 0.18716355 -0.0701024 -0.062446993
000090 89 02 60 be db e3 b2 be 5b 04 86 3d 1f 46 b0 3e
       -0.21875967 -0.34939465 0.065437995 0.34428498
0000a0 44 8d 80 bd fb b7 d0 bc 59 05 d5 be e7 52 dd bd
       -0.06276944 -0.025478354 -0.41605642 -0.10806828
0000b0 7c 6f 14 be dd 5e 26 3e a4 83 f1 b7 b4 31 b3 3d
       -0.14495653 0.16247125 -2.8790739e-05 0.087497145
0000c0 b7 10 f7 3d 14 39 8d be 7c b6 73 bd 2b f4 0d be
       0.12063735 -0.2758261 -0.059500203 -0.13862674
0000d0 7b 70 48 be 1f fa ab bd ac 6b 81 ba 1f 59 61 bd
       -0.19574158 -0.08397316 -0.0009874008 -0.055016633
0000e0 87 e1 35 3c 3e 03 a0 3c 2a 7d 40 be 23 b8 c5 3d
       0.011101133 0.019532796 -0.18797746 0.09654262
0000f0 0c b5 be 3d 73 e1 b3 be af 02 87 3e 62 34 11 bc
       0.09311876 -0.35132942 0.26369235 -0.008862587
000100 d7 77 27 be e2 4f 81 3e 39 26 5a be 4d 8d 8c bc
       -0.16354309 0.25256258 -0.21303643 -0.017157221
000110 bd 17 87 be 3a 6b bb 3d 8f be 93 be 38 d0 9e be
       -0.26385298 0.09151311 -0.28856322 -0.31018233
000120 3e c0 6c be 78 9d 58 3d 6e f3 f2 be 0d 27 55 bd
       -0.2312021 0.05288455 -0.47451347 -0.052039195
000130 f8 26 b0 bd 63 13 a4 3d cd 2a 92 3e 57 9a ed be
       -0.08601183 0.0801151 0.2854828 -0.46406814
000140 41 45 01 bf 98 73 53 bd 27 e6 d9 bd 3a 2f c6 3d
       -0.504963 -0.05162391 -0.10639601 0.096769765
000150 1b 66 52 3e 31 56 23 be 55 5d 4f 3d 23 97 0e be
       0.20546763 -0.15950848 0.050626118 -0.13924842
000160 31 40 c9 3d f6 a0 89 3e 92 0d 50 3d de 75 e8 bd
       0.09826697 0.26880616 0.05079419 -0.113506064
000170 a5 9e 47 bd 26 31 c1 3e 50 08 64 be 05 54 49 be
       -0.04873528 0.3773281 -0.22268796 -0.19660957
000180 b5 54 4c 3b e1 12 52 3d 96 60 77 be a5 ad e0 3c
       0.003117842 0.051287536 -0.24157938 0.02742655
000190 d0 d0 80 be ce d4 c1 be 0b 41 03 bd 96 1b 8f 3e
       -0.2515931 -0.3785767 -0.03204445 0.27950734
0001a0 ff 01 ec bd 46 4c b8 be 2f e1 0c be 1a cd c2 ba
       -0.11523818 -0.35995692 -0.13757776 -0.001486215
0001b0 c5 63 25 3d 73 dd 8b 3e 69 62 13 be d9 ff 5e 3e
       0.04037835 0.2731739 -0.14393009 0.21777286
0001c0 6d c1 21 be ab 2c c9 be 31 01 63 3e 27 f9 9a 3e
       -0.15796442 -0.3929189 0.22168423 0.30268213
0001d0 76 1c 9e be 26 6c c3 be 36 bb 5d bd ab c0 e1 39
       -0.3088109 -0.38168448 -0.054133616 0.00043058893
0001e0 73 1f f7 bd ed 02 df 3e 13 c5 bb 3c 9b be d3 be
       -0.12066545 0.4355692 0.02292112 -0.41356358
0001f0 43 71 53 3e 36 51 61 be 76 67 4e 3e af 18 b3 ba
       0.20648675 -0.22003636 0.20156655 -0.0013663972

lstm.weight_hh_l0 f4 [128, 32]
000000 41 03 16 be e7 aa 99 3d 89 ed 3a 3e 1f fa cb be
       -0.14649679 0.075033 0.18254675 -0.39839265
000010 5c 6b b9 3e 91 5a 95 be 40 a4 77 be e9 24 1c be
       0.3621472 -0.2917066 -0.2418375 -0.15248455
000020 46 82 59 be c6 1e 16 be 8e 07 3d 3e c6 48 40 be
       -0.21241102 -0.14660177 0.18459913 -0.18777761
000030 a0 80 3c be ad d1 b5 be ae b6 b9 bc 20 e0 7f be
       -0.18408442 -0.35511532 -0.022670116 -0.2498784
000040 0e f3 a5 bd 2c af bb 3e de 0b a1 bd 49 26 e6 3d
       -0.08103 0.36657083 -0.078635916 0.11237771
000050 10 a6 f3 3c 62 ab 83 3e cb c0 de bd 8c 9c a0 3d
       0.02974227 0.25716692 -0.10876616 0.07842359
000060 af b5 38 3e ab 06 06 be aa 60 0c 3c ca dd 7d be
       0.18038057 -0.13088481 0.008567968 -0.24791637
000070 cc 1f 11 bc db d4 70 be 61 00 1f be 22 9f 1c 3e
       -0.008857679 -0.23518698 -0.15527488 0.1529508
000080 e6 7c b4 be 74 01 3a 3c bb be 1c 3e 3c 75 9a 3b
       -0.3525154 0.0113528855 0.15307133 0.0047136825
000090 17 5d 0e bd 7b ea dc bd 55 bb be bd 0e 0c 80 be
       -0.034756746 -0.10786911 -0.093130745 -0.25009197
0000a0 67 18 82 be d5 89 84 bd bc 21 f7 3d 05 f7 8b bd
       -0.25409243 -0.06471602 0.12066981 -0.068342246
0000b0 51 3a 87 be 2e 2a 95 be af 77 ad bd 06 47 6a be
       -0.2641168 -0.29133743 -0.084700935 -0.22878656
0000c0 e1 87 c4 3d b3 7b 5a 3e 5e b6 8c bd 89 cc ba 3d
       0.09596229 0.2133625 -0.06870721 0.09121043
0000d0 25 a2 ff bc 82 de f1 bc 05 96 c0 bb 85 77 6c 3d
       -0.031205246 -0.029525045 -0.0058772587 0.05773117
0000e0 f6 b9 0c 3e 84 b4 e0 3d d3 ae 09 3e 1c 73 96 bd
       0.13742813 0.109719306 0.13445596 -0.07346174
0000f0 c5 18 5b 3d 68 61 2e be 3e 99 c1 3c 1a aa 8a 3d
       0.05349042 -0.17029345 0.023632642 0.067707255
000100 1f d8 5c be fb b2 33 be 05 3c 09 3e cc 88 3e 3e
       -0.21566819 -0.17548744 0.13401802 0.18606871
000110 f7 92 0a 3e 37 17 17 3e d9 fc 81 3c 89 50 46 bd
       0.13532625 0.1475495 0.015867637 -0.048416648
000120 af 92 09 bd 94 5d ef 3c 45 c6 91 3e fa 48 41 bd
       -0.033587154 0.029219426 0.2847158 -0.047188736
000130 55 ff 85 3d 49 f5 df bd 92 41 a7 3d b9 b9 05 3d
       0.06542841 -0.10935456 0.081668034 0.032647822
000140 2d 95 09 3e d9 96 5a 3e 5b 02 9f 3d c2 a8 90 3d
       0.13435812 0.21346606 0.07764121 0.07063438
000150 2e 7b 36 3e 79 b3 31 bd ee 11 c9 bc ab 7c 1b 3e
       0.17820427 -0.04338405 -0.024544682 0.15184276
000160 da 49 0e be 0f a2 88 bd 8d 85 b7 3e 5a da 24 be
       -0.1389536 -0.06671535 0.3584408 -0.1609892
000170 95 d1 ed 3d d9 bf b7 3d 44 07 8f bd 02 d2 21 be
       0.1161224 0.08972139 -0.06983808 -0.15802768
000180 21 4c 8c be f7 64 20 be 75 42 0a be c5 b9 5e 3d
       -0.27401832 -0.15663515 -0.13501914 0.054376382
000190 98 74 7a be c8 6e 32 3e 4c 13 c7 3c 8c fb 32 be
       -0.2445854 0.17425072 0.024301194 -0.1747877
0001a0 33 f9 fd bd 26 c8 f1 bd 15 23 b3 bd 0c 15 91 3c
       -0.124010466 -0.118057534 -0.08746926 0.017710231
0001b0 63 62 d5 3c c6 89 10 be 46 6d 6c bd 4a 7c 01 be
       0.026047891 -0.14115056 -0.0577214 -0.12645069
0001c0 bc a0 57 3e 71 22 d8 3d 89 99 bb 3c 89 33 58 3e
       0.21057409 0.10553444 0.02290036 0.21113409
0001d0 7c 36 27 bd ed 13 05 3d b5 f3 00 3d 49 f8 11 3e
       -0.040823445 0.032489706 0.031482417 0.1425487
0001e0 bc 04 4a be 3f 4f d3 3d 65 24 91 3d 4d 1f c6 3d
       -0.19728369 0.10317849 0.0708702 0.09673939
0001f0 04 89 1d 3d 7e cd 3c 3e b9 97 d7 bc b2 1b 21 be
       0.038460746 0.18437764 -0.026317464 -0.15733221
000200 77 8b 45 3e a9 ed 01 3e 9a d0 f4 bd 66 46 2c 3e
       0.19291483 0.12688316 -0.1195385 0.1682373
000210 e0 6a 51 3e 0e f4 65 be 30 3a de bd 55 f8 39 bd
       0.20450926 -0.2245638 -0.10850942 -0.045402844
000220 2e f3 8e be 96 73 83 be fd 10 17 bd 04 19 29 be
       -0.27919906 -0.25674123 -0.036881436 -0.16513449
000230 d4 5f 00 be c2 83 74 bd 2a c1 91 bd 35 f7 80 bd
       -0.12536556 -0.059695967 -0.07116921 -0.06297151
000240 c5 82 d6 3a 35 f1 e1 bd 82 7a a7 3c 87 b3 1d bd
       0.0016365877 -0.11032335 0.020444158 -0.03850129
000250 49 98 0e 3d 95 7c 97 3e 62 92 2c be 72 b4 24 bd
       0.0348132 0.29587236 -0.16852716 -0.04021115
000260 a6 99 60 3e 0e 44 aa bd cb a0 df bd 62 b4 63 be
       0.21933612 -0.08313762 -0.10919341 -0.2223678
000270 d5 27 af be f6 67 0a 3d c1 03 9f be a2 45 d3 3d
       -0.34210077 0.03379055 -0.31057552 0.10316016
000280 8c cc e6 bd 07 ad 35 bb 66 39 8f 3d 53 6d 12 be
       -0.11269483 -0.002772154 0.0699337 -0.14299516
000290 1d a4 b9 3c 86 37 0e be 8c 83 8d bd 78 b5 bb 3b
       0.022661263 -0.13888368 -0.06909856 0.00572842
0002a0 a9 99 38 be 91 53 85 bd 73 aa 78 3d f8 d0 ae bd
       -0.18027367 -0.0651008 0.060709428 -0.085359514
0002b0 3d 65 c8 3b 26 34 1f be 8e 96 85 be 03 68 da bd
       0.006115584 -0.15547237 -0.26091427 -0.1066437
0002c0 c0 af 83 bd 90 6f 91 3e 84 7d 13 be e4 ab 1e 3e
       -0.06430006 0.28405428 -0.14403349 0.15495259
0002d0 a2 ac c5 bd 72 af 8c 3e 20 c8 aa bc dd e1 61 3e
       -0.09652068 0.27477604 -0.02084738 0.22058816
0002e0 6a 92 79 3d f7 26 61 bd f6 4a d5 bd 24 9b a0 be
       0.060930647 -0.0549688 -0.10414688 -0.31368363
0002f0 e2 cb f8 bd 2f 71 85 ba 50 9a a4 be 41 f5 69 3e
       -0.121482626 -0.0010180826 -0.3214898 0.22847463
000300 ee 4a 62 be 3b 24 35 3d 2e a7 f6 3d 83 28 e8 bd
       -0.22098896 0.044224005 0.12043606 -0.11335852
000310 7d ee 15 3e 7b cc 4c bd 21 d5 80 3c 3a af 81 3d
       0.14641757 -0.049999695 0.015726628 0.0633225
000320 2b 12 2d 3c d9 b0 67 be b6 66 ac 3d 05 da 98 bd
       0.010563414 -0.22626056 0.08418028 -0.07463459
000330 97 2d 84 be e6 bc bf bc 76 9b ab 3d 27 18 26 be
       -0.25816032 -0.023405503 0.08379261 -0.16220151
000340 1c 62 19 be fb 6c 6f 3e cf 15 3d be a8 90 09 3e
       -0.14978832 0.23381416 -0.1846535 0.13434088
000350 b3 54 8d bd 24 a5 05 ba fe 13 94 bd 8e 86 89 bd
       -0.06900921 -0.0005098155 -0.07230376 -0.067151174
000360 b5 9a 51 bd f4 9f 02 be b2 dd 0f 3e 93 78 75 bd
       -0.05117293 -0.1275633 0.14049414 -0.05992944
000370 a9 b4 3d be 3b 26 01 3e a3 6e 54 bd 86 71 8b 3c
       -0.18525948 0.1261224 -0.051863324 0.017021906
000380 55 1b 9f be 50 ef 91 bb 58 69 32 3e f7 e0 b4 3c
       -0.3107554 -0.004453577 0.17422998 0.022079928
000390 15 73 a1 3e e7 6c 38 be c6 42 9f bd a0 1e 84 be
       0.31533113 -0.18010293 -0.07776408 -0.25804615
0003a0 55 02 43 bd 64 11 52 bd ea 31 f6 3c 39 60 40 be
       -0.047609646 -0.051286116 0.030053098 -0.18786706
0003b0 12 b3 10 be 94 be 29 bd 06 b2 7f bd 84 e2 e7 bd
       -0.1413081 -0.041441515 -0.062425636 -0.11322501
0003c0 e1 cd 50 3c ea 9d 27 3e db bf 62 be 00 b3 53 3e
       0.012744398 0.16368833 -0.221435 0.20673752
0003d0 2d bf 22 bd 60 be 8f bd 72 67 ae 3d ea a8 a9 3d
       -0.0397331 -0.07018733 0.085158244 0.08284171
0003e0 dc 28 35 be cb e2 1f 3e c5 9f 86 3e 00 9a 3a be
       -0.17691368 0.15613858 0.2629377 -0.18222809
0003f0 db cf bf bc 31 67 a7 be e3 b2 fa 3c d5 f3 36 3d
       -0.023414543 -0.32695916 0.030602878 0.04466613

lstm.bias_ih_l0 f4 [128]
000000 79 c0 46 3e 49 eb dd 3d af 05 fb 3b 9e ce 31 3b
       0.1940936 0.10835893 0.0076605896 0.002713121
000010 35 e9 ce 3d 1f 92 18 3e 8e 76 0c 3e f9 a5 1b 3e
       0.101030745 0.14899491 0.137171 0.15200032
000020 cc 70 f3 3c 3d 33 2f be d0 fa a3 3d 1d aa b6 bd
       0.029716872 -0.1710939 0.08006823 -0.08919165
000030 4b 16 41 3c 99 89 cb 3d 02 1e 8a 3e d6 d5 cf 3d
       0.0117851 0.09938354 0.2697602 0.10148208
000040 06 83 d4 3d 58 69 34 3b 79 4a 9d 3d a9 30 87 3e
       0.10376553 0.002752861 0.0768022 0.26404312
000050 82 a3 61 3e 1b 38 0f bd ad 37 12 bc 66 c6 25 be
       0.2203503 -0.034965616 -0.008924407 -0.16188964
000060 b0 c3 d2 3d cd 9f c5 3e 81 c2 c8 3e a3 57 a4 3c
       0.10291231 0.3859848 0.39210895 0.02006132
000070 4b 89 bf 3d ca b9 91 3e 86 27 15 bc 05 20 4a bb
       0.093523584 0.28462058 -0.009103661 -0.003084184
000080 a4 c4 04 3d 18 3d 55 3e f6 17 47 3e 90 6f 1f 3e
       0.032414094 0.20824087 0.19442734 0.15569901
000090 b4 86 d7 3d 78 61 c8 3d 69 a4 f1 3d 97 bb c9 bd
       0.105237395 0.09784216 0.11798937 -0.09850233
0000a0 f1 b0 9f 3e 74 13 25 3c 7a 1f f1 bc ad ab 7f 3e
       0.31189683 0.010075439 -0.029433955 0.24967833
0000b0 91 f6 53 3e a9 1a bf 3d 23 90 0d 3e fa 05 a2 3d
       0.20699526 0.09331257 0.13824515 0.07911296
0000c0 f6 f6 ed bc dc f8 7e 3e b1 96 02 3e c1 cb d3 3d
       -0.029048424 0.2489962 0.12752797 0.10341597
0000d0 e3 fc ca bc 32 e1 84 bd e3 ba c0 bd 10 ff 02 3e
       -0.024778789 -0.06488265 -0.09410646 0.12792611
0000e0 83 8f 92 3e f8 b3 c0 3d 7a d2 1b 3e fd c7 a2 3e
       0.28625116 0.09409326 0.15217009 0.31793204
0000f0 e5 5c 87 3e a3 0d ba 3d 51 90 be 3d a6 6e e9 bd
       0.2643806 0.09084632 0.0930487 -0.11398058
000100 fe 62 06 be 7b 08 00 be fd 03 4a 3d 09 5a 21 be
       -0.131237 -0.12503235 0.04932021 -0.15757002
000110 45 96 26 3e 42 22 88 be cd 16 ab bd 35 63 17 be
       0.16268261 -0.26588637 -0.08353958 -0.14783938
000120 ae 55 18 be fd ac 1a be bf 42 36 3e e8 f2 e5 bd
       -0.14876434 -0.15105052 0.17798899 -0.11227971
000130 3a 4b 9e 3c 4a 11 26 bb a8 78 84 3c f2 f3 8a bd
       0.01932298 -0.0025339895 0.016170815 -0.0678481
000140 ea 8f 26 be 09 a8 ab 3d f8 d0 6a be 46 9b c1 bb
       -0.16265836 0.083816595 -0.22931278 -0.0059084026
000150 d7 76 18 be 26 9e 5b 3e 72 91 2f be a7 c1 5c 3d
       -0.14889084 0.21447048 -0.17145327 0.05389562
000160 60 d3 71 bd 83 b2 78 3d 32 af ef 3b 6c 98 0e 3d
       -0.059039474 0.060717117 0.007314586 0.03481333
000170 a3 d5 b0 3d 70 20 9f bd 70 62 be bc 81 f6 ac bd
       0.08634498 -0.07769859 -0.023240298 -0.084454544
000180 0f 1b 5e 3e 31 4f 4f 3d 5d 0b 2e 3e c2 e2 c0 3d
       0.2169001 0.050612632 0.16996522 0.094182506
000190 0b b4 64 3e 15 42 88 3d fc e1 60 3e 40 ec 86 3e
       0.22334306 0.06653229 0.21961206 0.2635212
0001a0 72 31 93 3d 8c 0b 46 3e 89 6c 38 3c 0b 89 45 3d
       0.07187165 0.19340342 0.011256346 0.048226397
0001b0 7c 33 a8 3d 3e 97 cc bd e6 54 ba bc 0f 49 29 3e
       0.08212945 -0.09989785 -0.02274556 0.16531776
0001c0 df 34 9d 3e 2a 9e 5a 3e fb 3f 59 3e d7 71 8f 3e
       0.307044 0.21349397 0.21215813 0.2801654
0001d0 3c 18 a8 3e 03 45 8f bd 23 cf 50 3e 3c f2 06 be
       0.3283099 -0.06995585 0.20391516 -0.13178343
0001e0 34 0b 00 bd 3b ae 4e 3e 51 9a 82 3e e2 65 5c bd
       -0.031260684 0.20183651 0.2550836 -0.0538081
0001f0 f1 95 09 3e c8 d6 af 3e b8 40 18 3e 04 e7 9e bc
       0.13436104 0.34343553 0.14868438 -0.019397266

lstm.bias_hh_l0 f4 [128]
000000 62 a1 1e 3e 82 d0 21 3e 43 6d 10 bc 28 12 b4 bd
       0.1549125 0.15802196 -0.0088151125 -0.087925255
000010 46 eb 2c 3e 19 95 20 3d 3f b2 7a bb 2e ef 5c 3e
       0.16886625 0.03920469 -0.0038253216 0.21575615
000020 26 57 b2 bc df 80 18 3e 8b d7 0c ba 3d 4d 8d 3d
       -0.021770071 0.1489291 -0.00053726946 0.06899498
000030 3b d5 2d 3e da 49 0a 3e 98 3b 15 3e a6 a4 08 3e
       0.16975872 0.13504735 0.14573514 0.13344058
000040 f4 f6 39 3e 1d d4 3a 3e 59 47 9b 3e d0 2c d1 3e
       0.18160611 0.18244977 0.3032787 0.40854502
000050 be 13 83 3e cc 7d 95 3c b8 2c c0 bd 6c e5 f8 3d
       0.25601 0.018248461 -0.093835294 0.12153134
000060 07 b9 76 bd 4a 39 93 3e ab 9d 25 3e 72 ae 85 3e
       -0.06023505 0.28754646 0.16173427 0.26109654
000070 45 af bd 3c 18 41 9d 3d 64 7c 19 3e 1c 74 f2 3d
       0.023154864 0.07678431 0.14988858 0.11838552
000080 ae d8 fc 3d c7 02 eb 3d 0b dd 17 3e a0 45 5e 3e
       0.12346016 0.11475139 0.14830415 0.21706247
000090 79 38 96 bd e8 60 d4 3c a9 8f b2 3c df 9c 05 3e
       -0.0733499 0.025925115 0.021797018 0.13048123
0000a0 5f 24 93 3e e1 cd 0d 3e e8 63 65 3b 8f 28 04 3d
       0.28738686 0.13848068 0.0035002176 0.032265242
0000b0 6b a7 64 3c 35 ff 68 bd 21 e0 08 be 03 36 48 b8
       0.013955931 -0.05688401 -0.13366748 -4.7734018e-05
0000c0 70 c9 b0 3d a5 cd 3c bd 2e 26 94 3e 4f 38 49 3e
       0.08632171 -0.046094555 0.2893538 0.19650386
0000d0 2a 98 88 3b 86 f9 58 3e c6 fe ea 3c ee e4 3e bd
       0.00416853 0.21188936 0.028685939 -0.046605043
0000e0 b8 fc 92 3e 8f a5 66 3d e7 87 81 3d 08 c9 b6 3e
       0.28708434 0.056310233 0.063247494 0.3570025
0000f0 a6 d5 8b 3d 58 1d f9 3b 09 f3 27 be c9 a5 42 3e
       0.068278596 0.007602375 -0.16401304 0.19008555
000100 fa 6f 11 3d 18 e4 1f 3e 51 d2 04 3e 26 20 c0 bc
       0.03550718 0.15614355 0.12970854 -0.02345283
000110 2b 11 33 bd fa 4b 40 be 7a 02 bb bc fe 4f 36 be
       -0.043717545 -0.18778983 -0.02282833 -0.17803952
000120 54 ca 5b bc 5f 27 0c be 31 75 0e 3d 63 58 1e be
       -0.013414938 -0.13686894 0.03477973 -0.15463404
000130 f1 de c6 bd 58 78 c8 bd ef b5 da bd 15 a4 a3 bd
       -0.097104914 -0.09788579 -0.10679232 -0.079902805
000140 c3 15 87 bc ed 74 13 3e 14 3d 81 bd 8f 7a 0d 3e
       -0.016489869 0.14400072 -0.06310478 0.13816284
000150 58 c0 a2 bd fe 50 fc bb 59 ae 0b be ea d7 20 bc
       -0.07946843 -0.0077000847 -0.13640727 -0.009817103
000160 4f 5e 56 3d 8d 67 4f bd c5 e9 02 be 8c 11 f0 bd
       0.052336033 -0.050635863 -0.12784488 -0.11722097
000170 03 35 1c be 7e 77 f3 3b 15 5e 02 be 38 0f ed 3d
       -0.15254597 0.007430016 -0.12731202 0.11575168
000180 92 d4 c9 3d 40 ec 4d 3e f9 d1 b0 3d 0b 41 7d bc
       0.09854998 0.20109653 0.08633799 -0.015457402
000190 d5 c1 7d 3e 23 17 32 bc cd 32 cf 3d bb 23 c8 3d
       0.24780972 -0.010869774 0.10117111 0.0977244
0001a0 b1 3b 9e 3e 51 68 08 3e ff 6f 52 bc 45 d8 89 3e
       0.30904916 0.13321044 -0.012844085 0.26922813
0001b0 d2 fd 10 3e 6b b7 c0 bd e0 15 f8 3d 57 c7 7e 3e
       0.14159325 -0.09409984 0.12113547 0.2488073
0001c0 70 01 ec 3d 7d 47 46 3d 57 95 0c 3c 77 a3 6c 3e
       0.11523712 0.04840802 0.008580527 0.23109232
0001d0 15 e9 11 3e 12 76 3f 3e 94 40 6f 3d 2d ff e8 bd
       0.1424907 0.18697384 0.058411196 -0.11376796
0001e0 43 91 77 3e f8 87 83 3e f5 87 16 3e 8e 73 c2 3d
       0.24176507 0.25689673 0.14700301 0.094946966
0001f0 66 62 3f 3e c7 2c b7 3e b7 15 1a 3e b4 cc c7 3d
       0.1868988 0.3577635 0.15047346 0.09755841

fc.weight f4 [1, 32]
000000 f6 a8 eb be 9f 82 27 be 33 51 c4 3e 26 72 00 be
       -0.46027344 -0.16358422 0.383432 -0.12543544
000010 c5 dc 79 be c9 f8 05 3e dd 9f d9 3d 63 24 88 bd
       -0.24400623 0.13083185 0.106261946 -0.06647565
000020 e0 45 36 be 7a 4a 16 be 37 0e 41 be d0 f1 c6 3e
       -0.17800093 -0.14676848 -0.18853079 0.38856363
000030 e9 c6 9a be 76 c3 e1 be aa 27 a9 3e 60 18 86 be
       -0.3022988 -0.44094437 0.33038074 -0.26190472
000040 c1 1d 1d 3e b7 da 98 3d 62 a8 2f 3e be 35 26 3f
       0.15343381 0.074635915 0.17154077 0.64925754
000050 fa b4 d9 3e 1d c1 b5 be fa 19 92 3e cd 10 a3 3e
       0.42520887 -0.35498896 0.28535444 0.31848755
000060 89 d6 11 bd 23 c7 e1 3e 89 dd 0c 3f 93 9d 48 3e
       -0.035604987 0.44097242 0.55025536 0.1959136
000070 db 72 c0 3e d6 f3 91 3e 5c 71 89 bd 7f 14 b1 be
       0.37587628 0.28506345 -0.06711075 -0.3458595
