model_test_models/slip_lstm.pt (torch, 20531 bytes, 5 tensors)

lstm.weight_ih_l0 f4 [128, 1]
0.17542051 0.17691693 -0.31099445 -0.24442719 -0.0061041093 -0.12438508 -0.15851192 -0.27405944
-0.20612359 -0.16799577 0.098622985 0.21981421 0.004642542 0.18059121 0.27816054 0.329892
-0.28071007 -0.25479275 -0.031217 0.06693322 0.004307713 -0.15931192 0.20192741 0.00752757
0.30475697 0.17141046 0.068133034 0.14880924 0.088876046 -0.12690581 -0.021278089 0.2891923
-0.045513615 0.21397656 0.00859324 0.076189905 0.25735682 -0.04516076 -0.078965366 -0.3166132
-0.076874346 0.051135793 -0.032762833 0.08292264 -0.34468782 0.08866254 0.18271975 0.22014537
-0.13898556 -0.02998428 -0.19497925 0.029372798 -0.29010424 -0.17093238 0.18899895 0.081705056
0.060050014 0.27441305 -0.24429339 0.10497087 0.26153892 0.16367643 0.11304184 0.27199125
0.2620136 0.044426143 -0.06543024 -0.004888427 0.0486786 -0.15617016 0.13721165 -0.080354415
0.2220422 0.086955994 -0.023271078 0.14142163 -0.28664705 0.015502552 0.07025096 0.24219544
0.2994697 -0.039950497 -0.18514903 0.09393867 -0.13507937 0.14123695 0.08620218 -0.0041867187
0.03579047 -0.17288607 -0.055061247 0.061095633 0.06652718 0.058124557 -0.302814 0.27180088
0.11684529 -0.22973713 -0.11791139 0.049778745 0.022890132 -0.021652931 0.12500696 -0.33512285
-0.06140559 -0.050457533 0.112061985 0.16668448 -0.010138181 -0.062795445 0.35861248 0.39942288
-0.114601195 -0.18954472 0.043593533 -0.21898521 0.012569043 -0.13664837 0.06709916 0.050005097
0.18349662 0.20618838 -0.015377814 0.13283932 0.36990982 0.035262633 0.11750634 0.23857696
00000000: 6fa1 333e b629 353e aa3a 9fbe 1f4b 7abe
00000010: fb04 c8bb 9bbd febd f350 22be 8551 8cbe
00000020: 1012 53be 1507 2cbe d9fa c93d fa16 613e
00000030: 7720 983b e7ec 383e 0f6b 8e3e 9be7 a83e
00000040: 3bb9 8fbe 3274 82be cbba ffbc 4914 893d
00000050: b727 8d3b aa22 23be 0fc6 4e3e d5a9 f63b
00000060: 1b09 9c3e 3986 2f3e 5589 8b3d 7361 183e
00000070: a504 b63d 99f3 01be 634f aebc 0311 943e
00000080: 7c6c 3abd ac1c 5b3e a9ca 0c3c 7409 9c3d
00000090: 46c4 833e 7dfa 38bd 98b8 a1bd 201b a2be
000000a0: 4c70 9dbd c473 513d 5232 06bd 58d3 a93d
000000b0: ec7a b0be b594 b53d e31a 3b3e ca6d 613e
000000c0: 3b52 0ebe 98a1 f5bc a4a8 47be 399f f03c
000000d0: 8b88 94be e608 2fbe f188 413e fb54 a73d
000000e0: 01f7 753d de7f 8c3e 0c28 7abe f8fa d63d
000000f0: 6ee8 853e cb9a 273e 7b82 e73d 7042 8b3e
00000100: a626 863e 30f8 353d 4a00 86bd 192f a0bb
00000110: 3663 473d 12eb 1fbe 3681 0c3e db90 a4bd
00000120: 085f 633e fc15 b23d fda2 bebc d5d0 103e
00000130: 67c3 92be 6afe 7d3c bcdf 8f3d 1502 783e
00000140: 1854 993e 22a3 23bd b597 3dbe eb62 c03d
00000150: 3f52 0abe 6ba0 103e c58a b03d be30 89bb
00000160: 0799 123d 0c09 31be e787 61bd 6a3f 7a3d
00000170: 673f 883d 0414 6e3d 700a 9bbe 7c29 8b3e
00000180: 954c ef3d 3640 6bbe 877b f1bd cce4 4b3d
00000190: 1684 bb3c 7d61 b1bc d301 003e 3995 abbe
000001a0: 6e84 7bbd 8fac 4ebd c180 e53d 56af 2a3e
000001b0: 9d1a 26bc e69a 80bd 0e9c b73e 2881 cc3e
000001c0: 08b4 eabd 0318 42be 228f 323d a93d 60be
000001d0: 63ee 4d3c 8ded 0bbe 496b 893d 25d2 4c3d
000001e0: 8ae6 3b3e 0c23 533e 3af3 7bbc 0807 083e
000001f0: d264 bd3e 8d6f 103d 2aa7 f03d 854d 743e

lstm.weight_hh_l0 f4 [128, 32]
0.049935903 0.36523867 0.29678845 -0.2400923 0.34364736 0.30619988 0.02897343 0.20831314
0.018847426 0.0892952 -0.26295263 0.002241849 0.009536086 -0.086694315 0.010396012 0.041156426
-0.0937073 0.102964506 0.18189557 0.12170634 0.113315806 -0.29624376 0.046077516 0.34497365
-0.085370064 0.008769771 0.19299796 0.08001649 0.17009659 -0.22453226 -0.09726707 0.2400713
0.14409132 -0.025752889 0.19537358 -0.013266516 0.06427531 -0.04957044 -0.21796237 0.14069843
-0.14726253 0.034160692 0.06645526 -0.045130827 0.18588315 0.058003254 0.08256177 0.22386006
-0.043173794 -0.0037612773 -0.11056195 0.1275421 0.1019226 -0.21609694 -0.18541996 -0.06914775
-0.02263503 -0.11027961 0.2692943 -0.15883741 0.07799642 -0.12105671 -0.019482747 0.07067459
0.022992209 0.124475054 0.05717344 0.05591724 0.11397366 0.17311825 -0.06260227 0.20915513
-0.017513482 0.05952765 -0.2532867 0.12540622 -0.07123303 -0.1094738 0.1881201 0.04912758
-0.21496464 0.034131896 -0.067593105 0.13947186 0.16126819 -0.060066428 0.026552996 0.26306114
-0.24699324 0.018162876 0.20642734 0.25600165 -0.052940253 -0.06002866 0.16015798 -0.046196457
0.22308484 0.19585863 0.1798233 0.06846649 -0.094336316 0.012222539 -0.026721189 -0.16986357
0.2099212 -0.10220155 -0.19034663 0.07151792 0.05550383 -0.015217172 0.16177063 0.10726289
0.110666245 0.1485693 -0.0015588369 -0.027930992 0.08158006 0.056527965 0.0792156 0.0902832
-0.08050378 -0.0699477 0.1922146 0.15375166 -0.037411325 -0.269494 -0.10836643 0.19159244
-0.026881043 0.04669551 -0.06515495 -0.09654462 0.22412765 -0.08395803 -0.007063005 -0.008173998
-0.03935143 0.16003479 -0.08116151 -0.046313044 0.106638394 0.09510781 0.16185516 0.031075127
0.009880194 0.096163236 -0.08965865 -0.027300464 -0.16263951 0.058381837 -0.007301051 0.18480049
-0.03185235 -0.047061395 0.07149779 0.07313579 0.19236875 0.056911733 -0.10961623 0.23975974
-0.11023111 0.3249708 0.007496998 0.024956098 0.06391248 -0.052303534 -0.031063817 0.01910854
0.022886895 -0.031676706 -0.18764663 0.07867419 -0.09606356 0.18453711 0.2670925 0.22527164
0.041401427 0.17881791 -0.1379938 0.16633254 -0.0121168755 -0.30922312 -0.029758802 0.020134173
0.04658473 0.00863118 0.2210462 0.23582828 0.087081365 0.047033522 0.06552343 0.13952948
-0.06433029 -0.009604919 0.19903927 0.046929494 0.10000247 0.1410566 -0.13259536 0.1716156
0.076212905 -0.079847164 -0.1262991 -0.12932006 0.21985458 -0.12787008 -0.02276722 0.0001940695
-0.14768821 0.1981334 0.0048539224 0.19567446 0.23668659 -0.22348054 -0.07017511 0.17399308
0.10125186 -0.21430017 0.08835758 -0.006921171 0.09457985 -0.09803941 0.08821162 0.20906126
-0.08993406 0.008873421 0.15498877 0.1185455 -0.108610466 -0.02010807 0.016840603 0.21477903
0.05635338 -0.044003703 -0.011128022 -0.01612362 0.023568122 0.03248542 -0.16305633 0.14045525
0.044196818 0.12092533 0.056709122 0.116508834 -0.09532404 0.049183253 -0.21971156 0.08072618
0.12640621 0.06820344 0.13584791 0.2102903 0.072562575 -0.10796519 0.16280818 0.2341216
00000000: 9789 4c3d 9000 bb3e a8f4 973e c2da 75be
00000010: 8cf2 af3e 3bc6 9c3e b059 ed3c 0a50 553e
00000020: eb65 9a3c 67e0 b63d baa1 86be fceb 123b
00000030: 3e3d 1c3c ca8c b1bd 0954 2a3c a493 283d
00000040: 9de9 bfbd 0edf d23d d542 3a3e 2c41 f93d
00000050: 1e12 e83d 43ad 97be c7bb 3c3d 63a0 b03e
00000060: 80d6 aebd 16af 0f3c 42a1 453e afdf a33d
00000070: cd2d 2e3e c9eb 65be f533 c7bd 40d5 753e
00000080: ad8c 133e b9f7 d2bc 0310 483e cd5b 59bc
00000090: c6a2 833d 600a 4bbd 8731 5fbe 4013 103e
000000a0: fdcb 16be 15ec 0b3d b219 883d 1adb 38bd
000000b0: 2758 3e3e d294 6d3d 2516 a93d 923b 653e
000000c0: 01d7 30bd c37f 76bb 4e6e e2bd 659a 023e
000000d0: ccbc d03d 8448 5dbe bbde 3dbe 569d 8dbd
000000e0: 196d b9bc 47da e1bd f1e0 893e 46a6 22be
000000f0: 96bc 9f3d 95ec f7bd 489a 9fbc d7bd 903d
00000100: 285a bc3c c7ec fe3d b22e 6a3d 7a09 653d
00000110: 066b e93d e945 313e 9e35 80bd c32c 563e
00000120: 6f78 8fbc 44d3 733d cbae 81be 7d6a 003e
00000130: 9fe2 91bd cd33 e0bd 8ea2 403e 003a 493d
00000140: b11f 5cbe e3cd 0b3d 416e 8abd b6d1 0e3e
00000150: 7d23 253e 3708 76bd ab85 d93c f3af 863e
00000160: cceb 7cbe 50ca 943c b061 533e a612 833e
00000170: e1d7 58bd 9de0 75bd 7400 243e 7f38 3dbd
00000180: 5a70 643e 2a8f 483e 9923 383e 2938 8c3d
00000190: 6633 c1bd 0b41 483c 65e6 dabc b7f0 2dbe
000001a0: 95f5 563e 0c4f d1bd 3aea 42be fd77 923d
000001b0: fc57 633d 7251 79bc 33a7 253e a5ac db3d
000001c0: fca4 e23d 8d22 183e e351 ccba 89cf e4bc
000001d0: 7213 a73d de89 673d ca3b a23d 66e6 b83d
000001e0: 2adf a4bd bd40 8fbd e7d3 443e 1371 1d3e
000001f0: 9e3c 19bd 1efb 89be 38ef ddbd cf30 443e
00000200: a235 dcbc cb43 3f3d f56f 85bd 30b9 c5bd
00000210: b881 653e 30f2 abbd c870 e7bb 3cec 05bc
00000220: f72e 21bd 29e0 233e 0138 a6bd bfb2 3dbd
00000230: 3b65 da3d e2c7 c23d 5cbd 253e 4491 fe3c
00000240: 8ae0 213c 3bf1 c43d f49e b7bd 39a5 dfbc
00000250: f98a 26be cb21 6f3d a83d efbb 573c 3d3e
00000260: 9c77 02bd 73c3 40bd 6f6d 923d 38c8 953d
00000270: 50fc 443e 471c 693d 797e e0bd 9483 753e
00000280: d9c0 e1bd 9362 a63e 61a9 f53b bb70 cc3c
00000290: 8ce4 823d 3b3c 56bd 8c79 febc 8389 9c3c
000002a0: 4c7d bb3c 6fbf 01bd 7026 40be ef1f a13d
000002b0: f9bc c4bd 4cf7 3c3e 59c0 883e 9cad 663e
000002c0: 8b94 293d 0b1c 373e 3f4e 0dbe 1453 2a3e
000002d0: dc85 46bc 7e52 9ebe bbc8 f3bc 6cf0 a43c
000002e0: a1cf 3e3d cb69 0d3c ef59 623e f87c 713e
000002f0: b757 b23d 39a6 403d 2631 863d d1e0 0e3e
00000300: 99bf 83bd f35d 1dbc f3d0 4b3e 2439 403d
00000310: 18ce cc3d 2471 103e 14c7 07be 00bc 2f3e
00000320: 8315 9c3d e986 a3bd 8d54 01be 7a6c 04be
00000330: 8f21 613e 60f0 02be 5282 babc 227f 4b39
00000340: 943b 17be 7be3 4a3e a70d 9f3b e35e 483e
00000350: f85d 723e 15d8 64be f8b7 8fbd 3e2b 323e
00000360: 235d cf3d 8171 5bbe d2f4 b43d feca e2bb
00000370: 15b3 c13d e3c8 c8bd 4ba8 b43d 2814 563e
00000380: 592f b8bd d361 113c 60b5 1e3e fcc7 f23d
00000390: 2a6f debd aeb9 a4bc 4ef5 893c 09ef 5b3e
000003a0: cdd2 663d 3a3d 34bd 4f52 36bc af15 84bc
000003b0: ef11 c13c 6f0f 053d 3df8 26be 80d3 0f3e
000003c0: b907 353d b3a7 f73d d347 683d 2f9c ee3d
000003d0: 4039 c3bd 6174 493d 11fc 60be c453 a53d
000003e0: a170 013e 3fae 8b3d b71b 0b3e 5756 573e
000003f0: b09b 943d db1c ddbd 30b7 263e 93bd 6f3e

lstm.bias_ih_l0 f4 [128]
0.02713572 0.001522957 -0.017495083 0.13875544 0.10528615 0.11367633 0.262553 0.07470933
0.13768946 0.09671521 0.079706274 0.27596542 0.16751081 -0.092497215 -0.06486438 -0.08384865
0.15568876 -0.09318409 0.033853393 -0.062075865 0.061138906 0.27437156 -0.09739735 -0.018759552
-0.08563735 -0.03174055 0.12086852 0.07905078 0.059710227 0.14376086 0.097082905 -0.060003255
0.0003281861 0.13621768 -0.117459476 -0.05604667 0.15819839 0.1122361 0.0041147647 0.22989741
0.024142824 0.17975661 0.2109025 0.19653769 0.024689035 0.09304821 -0.1170036 0.13980031
-0.10991636 0.03764736 0.17812493 -0.02145721 0.043367226 0.115269214 -0.06427343 0.029072173
-0.046591222 0.09571538 0.0025839116 0.12764594 -0.013554721 0.18365593 -0.024911415 0.12023237
0.22487351 -0.026718618 0.15523545 -0.28176296 0.086312436 -0.0042690095 -0.02626737 0.14858302
-0.04212936 -0.12055494 -0.042822175 -0.11234485 0.20522478 0.049351808 -0.1398544 -0.069930285
-0.13916947 0.037898134 0.041953385 -0.17951447 0.043960426 0.08264983 -0.20621984 0.15328452
-0.02114261 -0.020984054 0.10265687 0.11350952 0.123275265 -0.10839616 0.018218767 0.10691717
0.12183173 0.26658058 0.04769374 0.21059583 0.13912691 0.13548574 0.10298842 -0.10270473
0.28441137 0.189242 0.12164944 0.2689668 0.13921991 -0.051755086 0.10325851 -0.11981197
-0.052645743 0.20020919 0.01934978 0.18064657 0.2130818 0.26007354 0.098875105 0.22955097
0.10241037 0.14395908 0.11634977 0.21935678 0.08335273 0.20981757 0.2340742 0.27769873
00000000: bb4b de3c f59d c73a d951 8fbc e815 0e3e
00000010: 44a0 d73d 23cf e83d 596d 863e 3501 993d
00000020: 77fe 0c3e a012 c63d 0b3d a33d 574b 8d3e
00000030: f487 2b3e 2e6f bdbd 9ed7 84bd d7b8 abbd
00000040: e06c 1f3e 4dd7 bebd dba9 0a3d 4343 7ebd
00000050: ca6c 7a3d 6e7a 8c3e 4378 c7bd a2ad 99bc
00000060: a362 afbd 6102 02bd ea89 f73d 60e5 a13d
00000070: b692 743d 0c36 133e 67d3 c63d f9c5 75bd
00000080: 6510 ac39 a67c 0b3e 988e f0bd 3191 65bd
00000090: c2fe 213e 0adc e53d 26d5 863b 3a6a 6b3e
000000a0: 2cc7 c53c 1e12 383e d3f6 573e 2d41 493e
000000b0: a940 ca3c 0f90 be3d 959f efbd d027 0f3e
000000c0: d41b e1bd 1e34 1a3d 6266 363e 08c7 afbc
000000d0: d5a1 313d 4412 ec3d caa1 83bd c428 ee3c
000000e0: 70d6 3ebd 6d06 c43d d856 293b 9eb5 023e
000000f0: 9f14 5ebc 4d10 3c3e 0613 ccbc 643c f63d
00000100: 3e45 663e 01e1 dabc 0bf6 1e3e 3c43 90be
00000110: 93c4 b03d 0ce3 8bbb ab2e d7bc 2626 183e
00000120: d68f 2cbd 82e5 f6bd 4e66 2fbd 0f15 e6bd
00000130: 7226 523e 1f25 4a3d fe35 0fbe 9c37 8fbd
00000140: 7182 0ebe 133b 1b3d 50d7 2b3d a4d2 37be
00000150: d90f 343d 5044 a93d 4b2b 53be 9ef6 1c3e
00000160: 4433 adbc c0e6 abbc c43d d23d ae77 e83d
00000170: be77 fc3d cefe ddbd 863f 953c 64f7 da3d
00000180: ea82 f93d 407d 883e 835a 433d 6fa6 573e
00000190: 4977 0e3e c6bc 0a3e 98eb d23d dc56 d2bd
000001a0: 5e9e 913e a8c8 413e 5723 f93d 04b6 893e
000001b0: aa8f 0e3e 24fd 53bd 3379 d33d fa5f f5bd
000001c0: 10a3 57bd a303 4d3e 6e83 9e3c 6afb 383e
000001d0: 1e32 5a3e 5c28 853e 087f ca3d 690f 6b3e
000001e0: 87bc d13d 026a 133e ca48 ee3d 109f 603e
000001f0: d6b4 aa3d 6bda 563e 26b1 6f3e 872e 8e3e

lstm.bias_hh_l0 f4 [128]
0.25665414 0.080974735 -0.07875261 0.1811987 0.09128267 0.002713612 0.27077824 -0.012151267
0.04745148 0.25491303 -0.00786993 0.0026606787 0.11685382 -0.092014484 -0.032765903 -0.043105163
0.06491539 0.09166343 0.13599564 -0.07016262 -0.027284661 0.024064828 0.1930541 -0.009094138
-0.038167648 0.29206282 -0.13841936 0.07025773 0.05654698 -0.09454668 0.13140823 0.27763858
-0.0749154 0.15442888 -0.044524185 -0.045559417 -0.042545386 -0.002546507 -0.06683929 0.11694338
0.2531573 0.027056402 0.15653959 0.10906868 -0.05150081 -0.15380974 0.030830353 0.012011024
0.11351774 -0.09232423 0.17988712 0.13386643 0.059529062 0.01895333 0.06430251 0.21507955
-0.10449364 0.053556353 -0.047248993 0.17726585 -0.08177382 0.18671003 -0.09419541 0.15718636
0.013423865 -0.036085438 0.011963881 0.013067145 0.1006343 0.04487791 -0.14190896 0.07391862
0.18798156 0.15222049 0.020980056 0.08163073 0.13024065 -0.10954145 0.030130565 0.09960713
0.06917212 0.0770779 0.18068507 0.03180287 -0.0016896258 0.09401507 -0.17311369 -0.025828268
0.19860277 -0.0108042285 0.028263995 -0.16096172 0.082621865 -0.20252618 -0.045013383 0.15381035
0.02733535 0.028382698 0.094420284 0.27036014 0.23332077 -0.025711052 0.112058006 0.031949162
0.30145422 0.05600903 -0.064302534 0.330884 0.06652472 0.18606526 0.0138393035 0.08655059
0.19511855 0.06829039 0.009173094 0.12325368 0.20601141 0.20827433 -0.07747124 0.2855327
-0.0030312578 0.20235787 -0.08057981 0.10013829 0.10943326 -0.07224383 0.16170964 0.044469878
00000000: 2c68 833e 15d6 a53d 0c49 a1bd 278c 393e
00000010: 69f2 ba3d dbd6 313b 72a3 8a3e 1c16 47bc
00000020: 7c5c 423d f683 823e e1f0 00bc c85e 2e3b
00000030: 0e51 ef3d 1772 bcbd 8a35 06bd 0a8f 30bd
00000040: 5cf2 843d 09ba bb3d 7142 0b3e 6bb1 8fbd
00000050: 1584 dfbc 9a23 c53c f9af 453e 94ff 14bc
00000060: ae55 1cbd 4289 953e cebd 0dbe 49e3 8f3d
00000070: ce9d 673d b1a1 c1bd e18f 063e a526 8e3e
00000080: 3f6d 99bd 9b22 1e3e fe5e 36bd 839c 3abd
00000090: 1244 2ebd 4ce3 26bb 0ae3 88bd 0380 ef3d
000000a0: d59d 813e 63a5 dd3c ea4b 203e 665f df3d
000000b0: 83f2 52bd 4d80 1dbe f08f fc3c e3c9 443c
000000c0: fd7b e83d 7c14 bdbd 5434 383e 4814 093e
000000d0: bfd4 733d 0444 9b3c 09b1 833d d03d 5c3e
000000e0: c300 d6bd e85d 5b3d 2988 41bd 2e85 353e
000000f0: 0879 a7bd ea30 3f3e 86e9 c0bd 76f5 203e
00000100: c5ef 5b3c 53ce 13bd 2704 443c 9417 563c
00000110: 5b19 ce3d e6d1 373d 9550 11be a562 973d
00000120: 3d7e 403e b0df 1b3e 5ede ab3c 032e a73d
00000130: ce5d 053e 4557 e0bd 60d4 f63c d3fe cb3d
00000140: 1daa 8d3d 05db 9d3d 8205 393e ba43 023d
00000150: 6f76 ddba f98a c03d b744 31be ce95 d3bc
00000160: 865e 4b3e 3804 31bc e589 e73c 26d3 24be
00000170: a735 a93d 0663 4fbe f45f 38bd 7680 1d3e
00000180: 62ee df3c d582 e83c 6c5f c13d a56c 8a3e
00000190: a4eb 6e3e fc9f d2bc ab7e e53d 20dd 023d
000001a0: 3558 9a3e ba69 653d 0cb1 83bd a169 a93e
000001b0: 1d3e 883d e487 3e3e 3fbe 623c 7041 b13d
000001c0: 28cd 473e d5db 8b3d bf4a 163c 6d6c fc3d
000001d0: a8f4 523e de45 553e 3ea9 9ebd 5831 923e
000001e0: 11a8 46bb e736 4f3e 0707 a5bd 4e15 cd3d
000001f0: 8c1e e03d 93f4 93bd 3697 253e 0c26 363d

fc.weight f4 [1, 32]
0.41895038 0.100687124 -0.11116546 -0.20440471 0.14846984 -0.21211764 0.31078562 -0.23647743
0.16836682 0.40481636 -0.11182717 0.29532117 -0.13525814 -0.13375036 -0.09949146 0.1561997
0.23674887 -0.1435969 -0.22401886 -0.103500985 -0.36380142 0.11616955 0.13340086 0.18705463
0.058243968 -0.27112705 -0.112134 0.08008916 0.2741014 -0.010923952 -0.54061216 0.17499274
00000000: aa80 d63e 0d35 ce3d b7aa e3bd 784f 51be
00000010: 7a08 183e 5e35 59be 4b1f 9f3e 2427 72be
00000020: 5a68 2c3e 1744 cf3e a505 e5bd 5634 973e
00000030: 1c81 0abe dbf5 08be 2ec2 cbbd d0f2 1f3e
00000040: 4c6e 723e 110b 13be 3365 65be 53f8 d3bd
00000050: 2e44 babe 4dea ed3d 3c9a 083e 408b 3f3e
00000060: 3a91 6e3d 2ad1 8abe 83a6 e5bd c905 a43d
00000070: 0557 8c3e 60fa 32bc 8f65 0abf 4c31 333e
