model_test_models/slip_cnn.pt (torch, 28769 bytes, 5 tensors)

conv.0.weight f4 [32, 1, 3]
000000 a2 91 00 3e 17 a8 22 3f ac a8 b0 3e 94 6e 0b bf
       0.12555555 0.63537735 0.34503686 -0.54465604
000010 37 88 8e 3e 67 f3 f5 3e 58 b9 93 be 1c 2b 43 3e
       0.278383 0.48037264 -0.28852344 0.19059414
000020 8e de ec 3d 38 07 11 bf bf a0 81 be a9 8d 28 3f
       0.115658864 -0.5665164 -0.25317952 0.65841156
000030 99 af 53 bc 13 68 1a bf c3 9c 99 be 1b 63 dd be
       -0.012920284 -0.60315055 -0.30002412 -0.43239674
000040 b7 7a 0f 3b f6 bd 9b be bd f1 d4 bd 84 8e 8b 3e
       0.0021893212 -0.30418366 -0.103976704 0.27257168
000050 c5 27 77 3d 96 e5 3f 3f 19 de 1b 3d 37 d4 91 be
       0.06034066 0.74959695 0.038053606 -0.2848222
000060 5a 02 08 3f ae f2 bd be 2b 70 bf be e5 a1 c3 3e
       0.5312859 -0.37099212 -0.37390265 0.38209453
000070 12 2e ef be 5d 8f 18 3f a4 4f f0 be 3e 3d 25 3f
       -0.46714836 0.59593755 -0.4693576 0.64546573
000080 6e bd 35 bf cc e1 ed be a6 4f 38 bf d4 b8 30 3e
       -0.7099217 -0.46461332 -0.71996534 0.17258006
000090 c0 f0 aa bd 58 99 c8 3e 5b db d3 be ba 62 4c bd
       -0.08346701 0.39179492 -0.41378292 -0.04989884
0000a0 55 b6 da be af ed d2 be a4 10 0e 3f e1 8d 83 be
       -0.42717233 -0.41196963 0.5549414 -0.25694183
0000b0 2e 70 f9 be 9b 70 bd 3e b3 e0 df be 7c 21 d9 3e
       -0.487184 0.36999974 -0.4372612 0.4240836
0000c0 9e af db 3e 4b 35 d2 3e a4 b2 8f 3d c0 30 33 3e
       0.42907423 0.41056284 0.07016495 0.17499065
0000d0 4b 09 a3 3e 83 77 e7 3d 6a 10 16 bf e8 f1 22 be
       0.31843027 0.11302092 -0.58618796 -0.15912592
0000e0 67 e9 11 bf de c4 8e 3d a5 a1 c8 be a8 ed 3b 3f
       -0.5699677 0.06971143 -0.39185825 0.7340951
0000f0 e5 40 69 3e 5c 57 c3 3e f5 74 ce 3e b2 05 cf be
       0.22778662 0.38152587 0.40323606 -0.40434033
000100 1a 56 00 bf ac 33 37 be 2b c4 32 3e 68 aa 4d 3e
       -0.5013138 -0.17890805 0.17457645 0.20084536
000110 1c 17 b8 3e 0e fc 32 bf 3c ec f0 3e 15 65 db 3d
       0.3595513 -0.69915855 0.47055233 0.10712639
000120 32 70 38 3f d7 8e 05 bf d0 be 26 be 0f 39 71 be
       0.72046196 -0.5217108 -0.16283727 -0.23556922
000130 1e 9c 95 be 49 93 0b bd de fc 31 3f b2 20 39 bf
       -0.2922067 -0.03407601 0.6952647 -0.72315514
000140 35 24 82 3d 02 96 3b 3f 18 21 16 bf d4 cc de be
       0.06354562 0.7327577 -0.5864425 -0.43515646
000150 82 f4 92 be e3 f7 1d bc 1c e9 99 be b3 f3 86 bc
       -0.2870217 -0.00964162 -0.3006066 -0.016473627
000160 bb 92 d4 be 31 92 da 3e 64 9d 23 3f 46 da 28 be
       -0.41518196 0.4268966 0.63912034 -0.16489515
000170 b6 1b 01 bf 30 8d c1 be 46 41 d6 3e fc 60 b1 3e
       -0.5043291 -0.3780303 0.41846675 0.34644306

conv.0.bias f4 [32]
000000 55 96 c5 be ea f0 3a be 98 3a 79 3e 45 f7 d4 3d
       -0.38591257 -0.18255964 0.24338758 0.103987254
000010 eb dd 85 3e 33 64 c8 be 9f ec 58 be 48 03 fc 3e
       0.26145872 -0.39138946 -0.21184014 0.49221253
000020 09 84 f7 3d 2e 86 0a 3f 0c 98 9f 3e 97 ce e4 3e
       0.120857306 0.5411099 0.3117069 0.44688866
000030 41 70 39 3e 77 cc c1 be ed 7d dd 3c 82 b2 eb 3e
       0.18109228 -0.37851307 0.027037585 0.46034628
000040 b7 d9 24 be ab a5 ff bd 85 65 09 bf 5d b9 02 bf
       -0.16098677 -0.124827705 -0.5367053 -0.5106409
000050 1f 3d cb be 9a d3 0e 3f 9d 31 24 bd 75 29 b8 3e
       -0.3969507 0.5579163 -0.040086377 0.3596913
000060 eb 6e a2 3e e7 7b d8 3e 5c 1d d0 3c 2f 49 d3 3e
       0.3172525 0.4228203 0.025404625 0.41266772
000070 96 e0 dd 3e 96 6f d8 3e 44 7f f3 3e b1 65 05 3f
       0.43335408 0.42272633 0.47558033 0.52108294

conv.2.weight f4 [64, 32, 3]
000000 a5 63 2b 3e 45 05 02 bd f6 d8 fa b9 1a 1c 36 bd
       0.1673723 -0.031743307 -0.00047845364 -0.044460393
000010 57 88 80 3d 6d a9 0a bd 0d 4a bd bb b5 58 cc ba
       0.06276005 -0.033852983 -0.00577665 -0.0015590402
000020 93 64 2e bd 71 7e 8a bc 46 e5 0c 3d 0b 8f eb bc
       -0.042576384 -0.016905995 0.03439834 -0.028754732
000030 41 d1 44 bd a5 da ea 3c d0 b2 04 3d c8 98 72 3d
       -0.048051123 0.028668711 0.03239709 0.059227735
000040 eb 4f 60 3b 50 1c 07 3e 28 77 06 3e 81 d8 66 3c
       0.0034227322 0.13194394 0.13131392 0.0140897045
000050 a7 a2 c9 bc 2d 37 92 3c 80 ce 42 3d 5a 26 03 3d
       -0.024613691 0.017848575 0.047560215 0.032018997
000060 47 65 c0 3d 1b 16 2d 3e d5 4e 60 3e 46 2d 48 3c
       0.09394317 0.16902964 0.21905072 0.012217825
000070 37 7b 80 3b fd 91 2a be 5b f7 f4 3d db 76 8f 3d
       0.0039209384 -0.16657253 0.11961242 0.07005092
000080 35 10 67 3d 85 42 08 3d d3 4d b1 3d 9e 47 46 bd
       0.05641194 0.033266563 0.08657422 -0.048408143
000090 96 bb 78 3d 03 d0 c2 3d 30 cd 0b 3e 3f b1 d7 3d
       0.06072577 0.09512331 0.13652492 0.10531854
0000a0 52 d3 92 3c 70 69 07 3d b7 60 81 3d d7 5d cc 3c
       0.017923031 0.033059537 0.06317275 0.02494709
0000b0 fe cb 5d 3e 59 86 b9 3c 95 06 86 bd c1 4d 48 bd
       0.21659848 0.02264707 -0.06544224 -0.048902277
0000c0 01 b2 c7 3d 25 46 f4 3d 84 a9 96 3d 88 33 5a 3d
       0.097507484 0.119274415 0.07356551 0.0532718
0000d0 ed ab f9 3d 08 74 6c bd 16 24 ec 3d c6 96 c9 3d
       0.12190995 -0.057727844 0.1153032 0.09843211
0000e0 0b b4 7e 3d 52 ea 2d 3e 24 e8 5b 3e f0 31 7a 3e
       0.06218342 0.16983917 0.21475273 0.24433112
0000f0 a6 55 d9 3d be 32 37 bd 14 a6 29 be 78 6d ff bd
       0.10612039 -0.044726126 -0.1656726 -0.124720514
000100 e4 f3 09 3d 77 2e 01 bc e9 e5 ca bb 9e ac 0a bc
       0.033679858 -0.007884613 -0.006191958 -0.008464007
000110 71 7c 07 3d 1a 08 e7 bc 59 61 d8 bd 43 42 40 bd
       0.03307766 -0.028202105 -0.105654426 -0.046938192
000120 b0 0f 41 3d ae 77 5b bc b5 d2 87 3d 27 db a9 3c
       0.0471341 -0.013395233 0.06631986 0.020734383
000130 70 09 27 bc 68 c2 c3 3d 5c a7 f2 3c 3d 0d 30 3c
       -0.010195121 0.095585644 0.029620819 0.010745344
000140 ef 25 27 bd f7 e4 b4 3d 8d 50 16 3e f8 e6 8b 3d
       -0.04080766 0.08832734 0.14679165 0.06831163
000150 ae d5 80 bd 38 7b e7 ba 2b 14 e9 3d a9 23 ac bd
       -0.06290756 -0.0017660623 0.113808 -0.08405239
000160 61 9d 1e be 64 be e7 bd cc 9a af 3d d6 6b 9f 3d
       -0.15489723 -0.11315611 0.08574447 0.0778424
000170 cc e6 1d 3d f2 a1 6d 3d 56 55 04 be 36 57 16 be
       0.038550183 0.05801577 -0.12923178 -0.14681706
000180 34 68 ae 3d 5c 11 33 3e 83 b5 79 3e 1a 05 83 be
       0.08515969 0.17487091 0.24385647 -0.2558983
000190 c3 7b 71 be a9 b9 11 be 53 94 79 bd 49 71 b8 bc
       -0.23582368 -0.1423098 -0.06093247 -0.022514956
0001a0 7f b3 96 bc 1a e9 b8 be 9c e0 b3 be 02 2b 9f be
       -0.018396137 -0.36115342 -0.351323 -0.310875
0001b0 c9 aa 24 bc 43 7a cb bd 37 49 55 3d c3 54 90 3c
       -0.010050484 -0.09935429 0.052071776 0.017618543
0001c0 16 6f dd b9 17 ef 62 3d 3f d9 60 bd 8c 56 c4 3d
       -0.0004223517 0.055403795 -0.054894682 0.0958682
0001d0 79 d5 50 3e 06 d1 03 3e 62 56 82 3d 2d 8a 98 3d
       0.20393933 0.12872705 0.063641325 0.0744823
0001e0 68 e0 93 be 62 68 c0 be 56 7d df be 0e d3 96 3d
       -0.28882146 -0.37579638 -0.4365031 0.07364474
0001f0 25 91 9a 3d 10 56 a3 bc 81 4f 7e be 2f 43 9d bd
       0.07547215 -0.019938499 -0.24835016 -0.0767883
000200 c8 c6 94 be 69 0f 2d be ad ae 30 be 52 31 3b bd
       -0.29057908 -0.1690041 -0.17254134 -0.045701332
000210 7a 1a 82 be 50 45 3d be e8 65 9a be 3b 3a c0 3b
       -0.25410825 -0.18483472 -0.30155873 0.0058663166
000220 d4 53 af bd c6 56 a6 bc 79 1f 86 be 2f 79 70 be
       -0.08560911 -0.020305049 -0.26195887 -0.23483728
000230 fe c2 ad be a0 08 c9 3d af fa c5 3a 96 66 d5 3d
       -0.3393783 0.09816098 0.0015104617 0.10419957
000240 4c e1 3c 3e f8 3d 48 3e cd 49 78 3d 9c c8 0d 3e
       0.18445319 0.19554889 0.060617257 0.13846058
000250 9d e6 da 3d 58 0f 1e 3e 31 1a 8e 3d 2d bf 13 3c
       0.10688517 0.1543554 0.06938589 0.009017748
000260 48 b4 37 3d 07 05 bf be 85 90 f9 be 3b 2b de be
       0.044849664 -0.37308523 -0.48743072 -0.43392357
000270 d9 24 f7 3d 4b c6 78 3e fe 47 77 3e b7 b4 58 bd
       0.12067575 0.24294393 0.24148557 -0.052906718
000280 45 a3 03 be fe b6 45 be 79 b6 50 3e 22 92 4c 3e
       -0.12855251 -0.19308087 0.20382108 0.1997762
000290 9c 34 f2 3d 57 2c 39 be 9c 2e 32 be a7 d0 30 bd
       0.11826441 -0.1808332 -0.17400593 -0.043167736
0002a0 7b 8f c5 3d df 1d b2 3d 5e 77 20 3d 1e 6a c6 bd
       0.09646507 0.08697104 0.039176337 -0.09688209
0002b0 a3 05 a9 bd 3f 01 3f be af d5 84 be ec ff bb be
       -0.08253028 -0.18652819 -0.25944278 -0.3671869
0002c0 6d ce ad be 6c 97 81 bd 5e c8 d9 bd 39 e0 c4 bd
       -0.33946553 -0.063277096 -0.1063392 -0.096130796
0002d0 e7 e2 2b be bc 81 2f be b5 63 b1 bd 98 36 2c 3d
       -0.16785775 -0.17139333 -0.08661596 0.042044252
0002e0 ff 84 f0 bc fd 10 73 3d ec 91 8f 3d 51 80 45 3d
       -0.029360292 0.059342373 0.07010254 0.048218075
0002f0 15 f3 25 bd b4 51 6a bc 15 1d b6 bc 69 c1 c6 3b
       -0.040515024 -0.014301706 -0.022230664 0.0060655368
000300 39 18 79 3d 88 78 ca 3d 72 1b 26 3e bb d9 87 3d
       0.060814116 0.09886271 0.16221407 0.06633326
000310 1c e6 09 bc 5e d1 40 3d 27 d9 d7 bb 76 0c fe 3c
       -0.008416679 0.047074668 -0.006587166 0.031011801
000320 86 6c 27 bd 7b 21 30 be e6 90 01 be 61 53 5e be
       -0.04087498 -0.17200272 -0.1265293 -0.21711494
000330 48 92 1a be cd 5b 41 bd f6 1d 94 bc 42 09 35 be
       -0.15094864 -0.04720669 -0.018080693 -0.17679313
000340 fd 0a c2 3c c4 19 1e bd b2 4e 0b 3e bf 39 98 3b
       0.02368688 -0.03859879 0.13604239 0.0046455557
000350 70 5f 1f 3e 17 9b 2c bc 6c b1 9c 3d ed 5f 82 3d
       0.1556375 -0.010535023 0.07651028 0.06365953
000360 c0 c4 1e be 6e 57 cc bd 4e cd ab be 4a 64 b4 3d
       -0.15504742 -0.099776134 -0.33555073 0.08808191
000370 40 a1 00 bd 53 6b 77 3c 5a e8 6c be 95 e6 52 be
       -0.03140378 0.015101272 -0.2313551 -0.20595773
000380 51 e8 c8 be 60 0f 03 be b2 b8 96 be 02 75 81 be
       -0.39239743 -0.12798834 -0.29437786 -0.25284582
000390 0d d9 07 3d bc 3a a1 bd 84 83 c0 be c0 1b d5 bd
       0.03316598 -0.07872531 -0.37600338 -0.104056835
0003a0 3a f7 ae bd 68 2c 7a 3d 3d 49 87 bc dc 05 68 be
       -0.085432485 0.061077505 -0.016514415 -0.22658485
0003b0 51 58 3e be 32 28 fa 3c 32 63 75 bd e0 b9 10 bb
       -0.18588378 0.030536745 -0.059909053 -0.0022083446
0003c0 59 f3 5f 3d aa 2b 2f 3e 60 dc f8 3d 52 23 90 3d
       0.054675434 0.171065 0.12151408 0.07037987
0003d0 fe 0e 12 3e bd f2 21 3e c1 be 0b be 9c c1 c4 3d
       0.14263532 0.15815254 -0.13646986 0.096072406
0003e0 17 bf ae bd 94 15 3c 3b 81 94 b3 3a 7d d3 20 3a
       -0.08532541 0.0028699385 0.0013700874 0.000613503
0003f0 59 b7 44 3e dd e6 9a 3d 73 60 2a 3e d1 fd 29 be
       0.19210567 0.07563565 0.16638355 -0.1660073

conv.2.bias f4 [64]
000000 f2 a3 bd bd 81 d5 49 bc 8d c1 9e bd 39 fc 90 bd
       -0.09259786 -0.01231897 -0.07751761 -0.07079358
000010 d5 ff f8 3d 8f 80 e8 3c c5 7b 8b 3d 14 fa e6 bc
       0.12158171 0.028381614 0.068107165 -0.028195418
000020 ff 58 a6 3d 69 c9 60 bd d8 26 94 bd 76 a9 a3 bd
       0.081224434 -0.05487958 -0.07233971 -0.079913065
000030 e4 3c 9f 3c f8 3d b0 3c 0b 95 08 3c 59 6d 5d 3c
       0.019438215 0.021513924 0.008336316 0.01351484
000040 17 6b 07 be ba 5d 5f 3d 97 52 ca bd 2b cf b7 3c
       -0.13224445 0.054532744 -0.09879034 0.022437653
000050 91 4c 02 3e 2a 3b 59 3d e8 b2 a6 bd 57 3b db bb
       0.1272452 0.05303494 -0.081395924 -0.0066904235
000060 f3 8d 66 bd 11 09 89 bd 3c 8d cc bc be 02 39 3d
       -0.056287717 -0.066911824 -0.02496969 0.04516863
000070 54 d0 88 3d 3c 31 20 3d 09 4d 92 bd 7c 99 5a bd
       0.066803604 0.039109454 -0.071435995 -0.05336903
000080 7e 24 9a 3d ae c3 62 bc e2 15 f0 bd a9 61 92 bd
       0.075264916 -0.013840599 -0.11722924 -0.071475334
000090 ab 51 c1 bd a5 dd 56 bd ec a5 88 bd fc 24 59 3d
       -0.09439405 -0.05245747 -0.06672272 0.053013787
0000a0 0d 3f b0 bc 86 f4 98 3d c8 b5 d7 bc f1 49 4e 3d
       -0.02151444 0.07468514 -0.026331797 0.050363485
0000b0 ad 2a c9 bc 19 92 9b 3d 42 25 ec bc 13 d8 05 bd
       -0.024556482 0.07596225 -0.02882636 -0.032676768
0000c0 a8 6e a5 bd 04 1c 9e bc e3 c6 4b bc f6 0c d4 3c
       -0.08077747 -0.019300468 -0.012437555 0.025885087
0000d0 37 1d f5 3d 89 be 13 be c8 79 b3 3c 70 6d 0b bc
       0.11968463 -0.14428152 0.021908656 -0.008509979
0000e0 b7 88 80 bd 55 00 bc 3d 71 f0 ea bd 0f 7c f6 bd
       -0.06276076 0.09179751 -0.11471642 -0.12035381
0000f0 0e 76 02 bd f4 0e a2 bd 68 96 05 3e 5b 56 3f 3d
       -0.031850867 -0.07913008 0.13045657 0.046713214

fc.weight f4 [1, 64]
000000 87 3a 36 be f9 c8 c2 3e c5 e4 30 3e 65 fa 8d be
       -0.17795764 0.38043955 0.17274769 -0.27730098
000010 71 26 8a 3d 25 d6 2a be ad 71 3e 3f 7e 81 62 be
       0.06745613 -0.16683252 0.74392205 -0.2211971
000020 98 9b 16 3e 9b 3f 09 3d 5c 89 87 3d 29 51 6e 3e
       0.14707792 0.033507925 0.06617996 0.23273148
000030 7b a6 f2 3e 24 ab 44 be a5 ad 78 be 8c 2d 93 be
       0.4739264 -0.1920591 -0.2428499 -0.28745687
000040 cc 18 1e be 4b cd 4e be fa 69 62 be b6 28 95 3d
       -0.15439147 -0.201955 -0.2211074 0.072831556
000050 fc 8d 29 3e 7d d8 0b 3e fb ae 3d be f1 d6 08 be
       0.16558069 0.13656802 -0.18523781 -0.13363244
000060 61 95 b5 3e c1 69 e5 bd b0 71 0d 3e d3 69 d2 bd
       0.3546553 -0.112018116 0.138129 -0.102740906
000070 8e b4 a1 3d 96 f7 90 be 3d a6 34 be 78 c9 e3 bd
       0.07895766 -0.28313893 -0.1764154 -0.111224115
000080 65 86 39 be ac ab 1d 3e bd 13 b6 be 59 50 ac be
       -0.18117674 0.15397519 -0.35561934 -0.3365505
000090 75 41 2c be 76 3b a2 be 1c e9 22 be 1e f4 43 be
       -0.16821845 -0.3168599 -0.15909237 -0.19136092
0000a0 74 9f a1 be 16 00 30 3e e5 7a 12 3e 2b 8b 5c 3f
       -0.31566966 0.17187533 0.14304693 0.86149853
0000b0 d3 ee 89 be b4 82 9e 3d 35 26 03 3e bd fd 12 3e
       -0.2694002 0.077397734 0.12807544 0.14354606
0000c0 5c e9 30 be 80 1c a0 3b 4a c0 bb be 1d fa 28 be
       -0.1727652 0.00488621 -0.36670142 -0.1650166
0000d0 b2 58 98 3d 11 0c 4c be 5e 5b 5f 3e 62 cc a7 be
       0.07438792 -0.19926478 0.21812198 -0.3277312
0000e0 00 1f 12 be 7e 23 63 3f 98 c9 30 be 49 ab 86 be
       -0.14269638 0.8872603 -0.17264402 -0.26302555
0000f0 9d 68 12 be b3 9c d4 3d e8 d8 f2 3d ee 56 c7 be
       -0.1429772 0.103814505 0.11857778 -0.3893351
