model_test_models/slip_rnn.pt (torch, 7082 bytes, 5 tensors)

rnn.weight_ih_l0 f4 [32, 1]
0.2518639 0.28101042 -0.032116313 -0.13713294 0.25102028 -0.2255124 0.14657106 -0.14629212
-0.14631152 -0.30047515 -0.2237593 -0.15546125 -0.2690207 -0.12827373 -0.077956975 0.121213935
-0.022051876 0.05272494 -0.0075900494 -0.0821352 -0.16381066 -0.15160877 -0.18521278 0.07206291
-0.23840234 0.29609638 -0.1965112 0.18493704 0.02073631 0.008098032 0.13254137 0.32674155
00000000: 4ef4 803e 99e0 8f3e 658c 03bd 946c 0cbe
00000010: bb85 803e b9ec 66be b916 163e 9acd 15be
00000020: b0d2 15be e1d7 99be 2821 65be 3c31 1fbe
00000030: 15bd 89be 305a 03be e8a7 9fbd 033f f83d
00000040: 23a6 b4bc 1bf6 573d f3b5 f8bb 8036 a8bd
00000050: fbbd 27be 543f 1bbe 6ba8 3dbe b895 933d
00000060: be1f 74be f299 973e 3b3a 49be 2360 3d3e
00000070: 32df a93c 9cad 043c edb8 073e ab4a a73e

rnn.weight_hh_l0 f4 [32, 32]
0.1390733 0.15538625 -0.115198426 0.15094997 0.18267252 0.096603885 -0.09779719 -0.055975832
0.07056203 0.015797202 -0.09030279 -0.038042367 -0.068183444 -0.09254409 -0.0015899652 -0.21526472
0.100291505 -0.013324481 0.07400753 -0.01966154 -0.10691061 -0.026905369 -0.053735834 -0.10249073
-0.05403384 -0.025524031 0.10215968 0.25349224 0.08615363 0.09708981 -0.05471416 -0.07658231
0.14685398 -0.14682183 -0.0767448 -0.08928638 -0.15186897 -0.18650052 -0.026839165 -0.2208032
-0.089993335 -0.052270565 -0.011575387 0.04049141 -0.2164438 0.09907121 0.020396305 -0.06992209
-0.124160476 0.039534353 0.04460127 0.05499586 0.1647747 -0.17502715 0.10799769 -0.14115351
-0.10781909 0.22171305 -0.17654964 0.18470979 -0.19586436 0.0016969772 0.10129729 -0.005427081
-0.055020746 0.0871706 -0.113435484 0.22305052 0.1984278 0.11787963 0.11544789 -0.062059168
0.20472114 -0.1151913 0.09090822 -0.17619577 -0.03297503 -0.041423187 -0.061190348 0.004601774
0.11125677 -0.11439216 -0.07617761 0.12590352 -0.019607631 -0.15245426 0.1324642 -0.04186746
-0.025602285 -0.06329761 -0.089939795 0.20225306 0.09660592 -0.06400698 -0.041267794 -0.016194407
0.14379427 -0.086063266 0.09716382 0.2070748 0.09754759 -0.1850135 -0.07974241 0.04084498
-0.12878451 0.06484636 0.10729937 0.1469923 0.103946246 -0.096431784 0.15091299 -0.004280002
-0.027450182 0.024153803 -0.030255264 0.09850682 -0.048273325 0.0015576227 0.14060779 -0.023681585
-0.03703988 0.023093766 0.15204552 0.06744658 -0.07404624 -0.08490052 -0.020665128 -0.055056244
0.13555792 0.18723157 -0.0033739435 -0.17615181 0.03237217 -0.14079882 -0.14558391 -0.15791456
-0.07574725 -0.029194819 0.097686745 -0.23784658 -0.21518199 0.017279306 0.116087735 0.16248526
-0.02108666 -0.10452741 0.068450674 0.1804972 0.12959497 -0.068640895 0.10173727 -0.14788003
-0.16045004 0.11979029 -0.02421384 0.13654004 0.07346505 0.14578176 -0.10313415 0.17282932
-0.034957748 0.06271713 -0.12220996 -0.051031876 -0.16980365 -0.007791815 -0.16214278 0.17307635
0.09018716 -0.049882647 0.029263357 0.07547858 -0.0040752403 0.21520244 0.06824129 -0.0070009693
-0.13976222 -0.0346904 0.13154742 -0.16543524 -0.06306098 -0.024680521 -0.05896735 -0.029910563
0.107854165 0.21128726 -0.018431166 -0.04808588 -0.12960522 -0.075554386 -0.03494775 0.18744472
-0.12874044 0.16854745 -0.027279956 0.122404985 0.123930074 0.07487966 0.16813524 -0.22104391
-0.00020564768 -0.15068479 0.021835996 -0.25013694 -0.104066364 0.087464094 -0.21925564 0.1938677
-0.19740778 0.007180132 0.095444135 0.18268059 0.05982058 0.122714445 0.025365354 -0.11999207
-0.26424703 0.08988298 0.053499866 0.07385187 0.06704426 -0.14164448 0.10191568 0.032108046
0.19778934 0.1920539 0.003710068 0.07589639 -0.0053356686 0.0054176287 0.23453754 -0.010701334
-0.017832058 -0.20039697 -0.14520851 0.08997407 -0.084056266 -0.055079423 -0.16100827 0.12472464
0.10776304 -0.04024556 -0.117892385 0.09762048 -0.18741223 -0.124480024 -0.19237387 0.065838195
-0.10938331 -0.08151372 0.02838966 0.18462387 0.05362156 -0.028406058 0.14968523 0.10123111
00000000: 3b69 0e3e 931d 1f3e 27ed ebbd a192 1a3e
00000010: 810e 3b3e 42d8 c53d e549 c8bd ea46 65bd
00000020: d382 903d 2269 813c abf0 b8bd 50d2 1bbd
00000030: c3a3 8bbd c187 bdbd 6166 d0ba 5b6e 5cbe
00000040: a265 cd3d ed4e 5abc 4391 973d 3d11 a1bc
00000050: f3f3 dabd a668 dcbc 1b1a 5cbd a9e6 d1bd
00000060: 9652 5dbd c617 d1bc 1839 d13d bcc9 813e
00000070: 5071 b03d 06d7 c63d f41b 60bd 30d7 9cbd
00000080: e460 163e 7658 16be 612c 9dbd c7db b6bd
00000090: 8a83 1bbe fef9 3ebe cfdd dbbc 3c1a 62be
000000a0: 6d4e b8bd a919 56bd b1a6 3dbc 52da 253d
000000b0: 72a3 5dbe d9e5 ca3d 2716 a73c 5033 8fbd
000000c0: d947 febd c6ee 213d d2af 363d 5743 613d
000000d0: b3ba 283e 513a 33be e52d dd3d 8c8a 10be
000000e0: 41d0 dcbd bf08 633e 6ec9 34be 9024 3d3e
000000f0: ab90 48be 1b6d de3a f474 cf3d a8d5 b1bb
00000100: 6f5d 61bd 8086 b23d dd50 e8bd 5b67 643e
00000110: a830 4b3e e06a f13d f16f ec3d c131 7ebd
00000120: 6ba2 513e 6be9 ebbd 172e ba3d aa6c 34be
00000130: d310 07bd 5cab 29bd bba2 7abd 7aca 963b
00000140: 97da e33d 7046 eabd 0203 9cbd daec 003e
00000150: 2fa0 a0bc f81c 1cbe b2a4 073e 377d 2bbd
00000160: e2bb d1bc 2da2 81bd 5b32 b8bd 6d1b 4f3e
00000170: 53d9 c53d 1716 83bd 6b08 29bd 22aa 84bc
00000180: ce3e 133e f041 b0bd d3fd c63d 6b0b 543e
00000190: 08c7 c73d 2e74 3dbe fd4f a3bd 114d 273d
000001a0: 16e0 03be 2bce 843d c6bf db3d 2685 163e
000001b0: c5e1 d43d 077e c5bd ef88 1a3e 423f 8cbb
000001c0: 34df e0bc 32de c53c e3d9 f7bc f2bd c93d
000001d0: 40ba 45bd 2529 cc3a 7dfb 0f3e e2ff c1bc
000001e0: 21b7 17bd 232f bd3c d2b1 1b3e 6f21 8a3d
000001f0: 8ea5 97bd 53e0 adbd ea49 a9bc a882 61bd
00000200: b2cf 0a3e a2b9 3f3e 611d 5dbb 2461 34be
00000210: ae98 043d 912d 10be f313 15be 5bb4 21be
00000220: 6021 9bbd f929 efbc fd0f c83d 0e8e 73be
00000230: ab58 5cbe 558d 8d3c 68bf ed3d 8962 263e
00000240: eebd acbc 7712 d6bd de2f 8c3d 42d4 383e
00000250: 8bb4 043e 9993 8cbd a15b d03d dd6d 17be
00000260: 044d 24be 9d54 f53d 1a5c c6bc 27d1 0b3e
00000270: d874 963d d047 153e ff37 d3bd 2bfa 303e
00000280: db2f 0fbd d771 803d 3749 fabd cd06 51bd
00000290: 02e1 2dbe 7b52 ffbb c208 26be ed3a 313e
000002a0: 0cb4 b83d bf51 4cbd b5b9 ef3c 8494 9a3d
000002b0: 9889 85bb 075e 5c3e 17c2 8b3d 6368 e5bb
000002c0: d41d 0fbe 8517 0ebd 5eb4 063e db67 29be
000002d0: 1d26 81bd ce2e cabc bf87 71bd ff06 f5bc
000002e0: a5e2 dc3d b05b 583e f5fc 96bc b3f5 44bd
000002f0: 3bb7 04be 42bc 9abd 5f25 0fbd 82f1 3f3e
00000300: 89d4 03be b497 2c3e 377a dfbc 77af fa3d
00000310: 0dcf fd3d 825a 993d a52b 2c3e 5659 62be
00000320: 21a3 57b9 1d4d 1abe 67e1 b23c f311 80be
00000330: bf20 d5bd 6020 b33d 8d84 60be 4185 463e
00000340: 4425 4abe 5047 eb3b 3778 c33d 9f10 3b3e
00000350: 6d06 753d b651 fb3d 01cb cf3c 67be f5bd
00000360: 634b 87be 9114 b83d ad22 5b3d a63f 973d
00000370: 804e 893d 400b 11be 2bb9 d03d ba83 033d
00000380: 4a89 4a3e c7a9 443e 9d24 733b 916f 9b3d
00000390: d5d6 aebb 5d86 b13b 9c2a 703e a654 2fbc
000003a0: 8914 92bc dd34 4dbe 8ab1 14be 5344 b83d
000003b0: b125 acbd f69a 61bd 5adf 24be a26f ff3d
000003c0: deb2 dc3d 87d8 24bd 9071 f1bd 3fed c73d
000003d0: fee8 3fbe 62ef febd a8fd 44be 2dd6 863d
000003e0: 5b04 e0bd aaf0 a6bd 6f91 e83c 0a0e 3d3e
000003f0: 48a2 5b3d d2b3 e8bc 1647 193e 4252 cf3d

rnn.bias_ih_l0 f4 [32]
-0.07921975 0.061268803 -0.080843955 0.033480033 -0.07628389 -0.13089506 0.1194296 -0.01792057
-0.034220133 0.114066735 0.18283382 0.19151188 0.09576864 -0.123614214 0.12290621 0.002153247
0.012662319 0.15632428 -0.07983527 -0.13210444 -0.0011196894 0.11464307 -0.013372511 -0.12339849
-0.110198714 -0.040147003 -0.053501625 0.034511972 -0.048585832 -0.20407455 -0.0021110303 -0.14844729
00000000: f73d a2bd fff4 7a3d 8491 a5bd 5c22 093d
00000010: ba3a 9cbd 5b09 06be 8297 f43d 29ce 92bc
00000020: 692a 0cbd d29b e93d ca38 3b3e b11b 443e
00000030: 5922 c43d 7329 fdbd 40b6 fb3d 7d1d 0d3b
00000040: 9d75 4f3c 7913 203e ad80 a3bd 6346 07be
00000050: 8bc2 92ba fcc9 ea3d 6018 5bbc 59b8 fcbd
00000060: ddaf e1bd 2f71 24bd 8524 5bbd 6d5c 0d3d
00000070: f001 47bd ebf8 50be 3659 0abb 9102 18be

rnn.bias_hh_l0 f4 [32]
0.061162792 -0.0073749213 -0.11170095 0.115612574 -0.185788 0.19426858 -0.0368978 0.15668719
0.17225674 0.090002775 -0.007922607 0.04650258 -0.015924454 -0.074740514 0.11407058 -0.11350793
0.004590778 -0.048867393 -0.04893981 0.12747376 0.050339002 0.07749426 0.07304136 0.022038255
0.10493249 -0.16160873 0.06617085 -0.06923049 0.13456625 -0.18772833 0.01091983 0.024520421
00000000: d685 7a3d 53a9 f1bb 78c3 e4bd 49c6 ec3d
00000010: 363f 3ebe 58ee 463e 2622 17bd 9b72 203e
00000020: 1264 303e 6053 b83d d2cd 01bc 7d79 3e3d
00000030: 0074 82bc 8e11 99bd d69d e93d d876 e8bd
00000040: 3d6e 963b 2d29 48bd 1c75 48bd 7b88 023e
00000050: 4530 4e3d 50b5 9e3d b596 953d 9289 b43c
00000060: d8e6 d63d c27c 25be 9584 873d b7c8 8dbd
00000070: bccb 093e db3b 40be 16e9 323c 0ddf c83c

fc.weight f4 [1, 32]
0.3073952 0.115732156 0.16286111 0.05133383 0.07860524 -0.393435 0.11131959 0.18048213
0.123837896 -0.28511977 -0.22770016 -0.14659496 -0.09784575 -0.15353443 0.040019266 0.2127902
-0.04093631 -0.082256764 -0.14409801 -0.23323154 -0.27687818 -0.16767856 -0.1913412 0.32909337
-0.02355607 0.26051208 -0.22911088 -0.052682884 0.09445941 -0.11623098 0.03465523 0.37797862
00000000: e762 9d3e fb04 ed3d 10c5 263e 6c43 523d
00000010: c9fb a03d 5070 c9be 86fb e33d 4fd0 383e
00000020: b99e fd3d 38fb 91be 3b2a 69be fd1c 16be
00000030: 5a63 c8bd 2138 1dbe 3eeb 233d ade5 593e
00000040: d5ac 27bd 3c76 a8bd 6e8e 13be 40d4 6ebe
00000050: fac2 8dbe eeb3 2bbe f3ee 43be ed7e a83e
00000060: a9f8 c0bc d761 853e 0b9c 6abe 02ca 57bd
00000070: ef73 c13d 820a eebd a4f2 0d3d 6a86 c13e
