model_test_models/slip_cnn.pt (torch, 28769 bytes, 5 tensors)

conv.0.weight f4 [32, 1, 3]
0	0xbebf42c3	-0.37355623
1	0x3f122bc6	0.5709804
2	0x3f259556	0.64680994
3	0xbe928399	-0.28616026
4	0x3f319585	0.69368774
5	0xbef59a97	-0.47969505
6	0x3dd882df	0.10571837
7	0xbe92b3cc	-0.286528
8	0x3e978c70	0.29599333
9	0xbf0c40cf	-0.5478639
10	0xbe73b492	-0.23799351
11	0xbe483a6b	-0.19553535
12	0xbf0ce0d1	-0.5503054
13	0x3f049ab5	0.51798564
14	0x3e6a3ae5	0.22874029
15	0x3deb19f7	0.11479562
16	0xbe5a026d	-0.21289988
17	0x3ec739b0	0.389112
18	0x3f16dfb1	0.58935076
19	0xbee703f6	-0.4512021
20	0xbe918ce1	-0.28427795
21	0x3ed80503	0.42191324
22	0x3e204ea9	0.15655006
23	0x3ebd0aef	0.36922404
24	0xbf08d15e	-0.5344447
25	0xbf079508	-0.5296178
26	0xbeb8dda3	-0.36106595
27	0xbeb9a817	-0.36261055
28	0x3beb2eb1	0.007177197
29	0x3f094be3	0.5363142
30	0xbebc3d8d	-0.3676571
31	0x3e824fd9	0.25451544
32	0xbf12d273	-0.5735237
33	0xbd2bbb65	-0.04192676
34	0xbe7324b9	-0.23744477
35	0x3f3a8925	0.72865516
36	0x3f352a94	0.70768094
37	0xbced79f4	-0.028988816
38	0xbf40fbae	-0.7538403
39	0xbe2e617e	-0.17029378
40	0xbf1c6d70	-0.6110449
41	0xbcdf3de9	-0.0272512
42	0xbf1177fc	-0.56823707
43	0xbe8bbfce	-0.27294773
44	0xbe8e5676	-0.2780034
45	0x3ed178ca	0.40912467
46	0x3ecfd1a7	0.4058964
47	0xbe9ad990	-0.30244112
48	0x3dc4af4c	0.09603748
49	0x3da7af8a	0.08187778
50	0xbd9f6fdd	-0.07785008
51	0x3f018463	0.5059263
52	0xbf5d6908	-0.8648839
53	0xbf0a2ccc	-0.53974605
54	0xbe9c4e6d	-0.30528584
55	0xbee7168c	-0.4513439
56	0x3d47877d	0.048713196
57	0x3e442f0e	0.19158575
58	0x3f141854	0.5784962
59	0xbee034c3	-0.43790254
60	0x3eb688e6	0.3565132
61	0x3e7f471e	0.24929473
62	0x3efe88b9	0.49713686
63	0xbec9198d	-0.39277306
64	0x3e5b94b2	0.21443442
65	0xbec078a2	-0.37592036
66	0xbf11eaca	-0.56998885
67	0xbbaf5c68	-0.005351592
68	0xbf187336	-0.595508
69	0xbf020734	-0.5079224
70	0x3f06dc0b	0.5267951
71	0x3e4e6f4f	0.20159648
72	0x3f281fe5	0.6567367
73	0xbe34b6c5	-0.17647846
74	0xbde9ff26	-0.11425619
75	0x3e8a9d37	0.2707307
76	0xbf13ec39	-0.5778232
77	0xbed6ccec	-0.41953218
78	0x3e81ac55	0.2532679
79	0xbed352bb	-0.41274056
80	0x3ec1b82f	0.37835833
81	0xbe0c1aad	-0.13682051
82	0xbe2e81ca	-0.17041698
83	0xbe8c5b69	-0.2741349
84	0x3f0c540c	0.54815745
85	0x3e52fa37	0.20603262
86	0x3e2828bf	0.16421793
87	0x3ed3b4e1	0.41348937
88	0x3ebbf685	0.36711517
89	0xbf0a2d1f	-0.539751
90	0xbee94646	-0.45561427
91	0x3ef7b5c5	0.48380867
92	0x3e7dd687	0.24788867
93	0xbea1b542	-0.315836
94	0x3f3106f2	0.6915122
95	0x3d9ae4ca	0.07563169

conv.0.bias f4 [32]
0	0xbde32dbd	-0.11092708
1	0x3f0c7ebf	0.548809
2	0x3de1ad65	0.110194005
3	0xbf02446d	-0.5088566
4	0x3e8acba2	0.27108485
5	0x3ea2738e	0.31728786
6	0x3e8dfe43	0.2773305
7	0xbee57114	-0.44812834
8	0x3e16ce10	0.14727044
9	0xbe114a78	-0.14188564
10	0x3e35228e	0.17688963
11	0x3e8130c6	0.25232524
12	0xbe847897	-0.25873253
13	0x3df1b119	0.11801357
14	0x3ea71ac3	0.32637605
15	0x3f00fa3b	0.5038182
16	0x3f1a276c	0.60216403
17	0x3ed2cbf9	0.41171244
18	0xbf03d02a	-0.5148951
19	0xbed11434	-0.40835726
20	0x3ebf6521	0.37381843
21	0xbdf6ac10	-0.12044537
22	0x3e6e9bc6	0.2330161
23	0xbe8f82d1	-0.28029492
24	0x3da763e5	0.0817335
25	0xbca17dd2	-0.019713316
26	0xbe81921b	-0.25306782
27	0xbe60fbe6	-0.21971092
28	0xbc33a443	-0.010964456
29	0xbe884166	-0.26612395
30	0xbf04c223	-0.5185873
31	0xbf0699b5	-0.5257829

conv.2.weight f4 [64, 32, 3]
0	0x3dde0455	0.1084067
1	0x3dcaa272	0.09894265
2	0xbd38f006	-0.04515078
3	0x3de1fd81	0.1103468
4	0xbc47977b	-0.012182112
5	0xbd902aac	-0.07039389
6	0xbe1daaef	-0.15397237
7	0xbe343e2f	-0.17601846
8	0xbd355021	-0.04426587
9	0x3d0c95e0	0.03432262
10	0x3dfc5b89	0.123221464
11	0x3e08abde	0.13346812
12	0xbdecbee0	-0.11559844
13	0xbdf498cb	-0.119432054
14	0xbdbfdea5	-0.09368638
15	0xba3dc68d	-0.0007239364
16	0xbdd1c417	-0.10242479
17	0xbdbb2f9a	-0.09139939
18	0x3afa1847	0.0019080722
19	0x3ddd557c	0.108073205
20	0x3d4a2237	0.049349036
21	0x3d30f11d	0.043198694
22	0xbdbfc2e9	-0.09363348
23	0x3d1a65b2	0.03769464
24	0xbc1fe104	-0.009758238
25	0x3c853f1c	0.016265444
26	0x3dfb1d14	0.122614056
27	0xbc829df2	-0.015944455
28	0xbb9b5e3d	-0.0047414587
29	0xbd7dbff8	-0.061950654
30	0x3d22fb71	0.039790574
31	0xbd954c92	-0.07289995
32	0xbc6d0d35	-0.014468481
33	0xbdbcf9cf	-0.09227335
34	0xbda30c31	-0.0796131
35	0xbe01ee2f	-0.12688516
36	0x3e6e7c99	0.23289718
37	0x3e00c1c8	0.12573922
38	0x3e8174d8	0.25284457
39	0x3d3366b4	0.043799117
40	0xbd73d460	-0.05952871
41	0x3d882c73	0.06649103
42	0xbda3c752	-0.07997002
43	0xbd5c59e1	-0.053796653
44	0x3ccb40f9	0.024811255
45	0x3c3f85d8	0.011689626
46	0xbd44411d	-0.04791366
47	0x3dd05567	0.10172539
48	0x3db977f7	0.090560846
49	0x3bdb9fbf	0.006702393
50	0xbde0df30	-0.1098007
51	0x3de2b456	0.110695526
52	0x3cdf63a2	0.027269188
53	0x3e221211	0.15827204
54	0x3dab6cf3	0.0837039
55	0x3dd7db29	0.10539848
56	0x3d3822bf	0.04495501
57	0x3e194316	0.14966998
58	0x3c05d334	0.0081680305
59	0x3db668ad	0.08906684
60	0x3d230ad7	0.03980526
61	0xbbee89bd	-0.0072796033
62	0x3d76610c	0.060151145
63	0xbd93da84	-0.07219413
64	0x3d2916d3	0.041281532
65	0x3ddf682a	0.109085396
66	0xbd5df407	-0.0541878
67	0xbd964fed	-0.073394634
68	0x3dc18d39	0.09450764
69	0x3e177709	0.14791502
70	0x3e0bf17a	0.13666335
71	0x3db09697	0.08622473
72	0x3de0b6f5	0.10972396
73	0x3c5b40e4	0.01338217
74	0x3d1a56b1	0.03768033
75	0xbd8c6d6b	-0.06856807
76	0x3dfb15a6	0.122599885
77	0x3a0abe07	0.00052925985
78	0x3e577d52	0.210439
79	0x3d211fbd	0.03933691
80	0x3dbbe897	0.09175222
81	0x3cc2791e	0.023739394
82	0x3ddd40b6	0.10803358
83	0x3d6daaa9	0.058024082
84	0x3c53d80c	0.012929928
85	0x3daea2b9	0.08527131
86	0x3d5a9283	0.05336238
87	0x3e14dcf5	0.14537413
88	0x3e97f1b1	0.29676583
89	0x3e971a73	0.29512367
90	0x3e694afb	0.22782509
91	0x3e59de55	0.21276219
92	0x3ea1bc61	0.31589034
93	0x3ee7ec38	0.45297408
94	0x3e7b6890	0.24551606
95	0x3ea3c695	0.31987444
96	0x3d4c8611	0.049932543
97	0x3dae12b4	0.08499661
98	0xbd9e47b6	-0.077285215
99	0xbc814650	-0.015780598
100	0xbd7a19cb	-0.061059754
101	0xbdad4700	-0.08460808
102	0xbe070731	-0.13186337
103	0x3d130b3b	0.035899382
104	0xbd7a6c79	-0.061138604
105	0x3e130aee	0.14359638
106	0x3d47a675	0.04874273
107	0x3e1a3208	0.15058148
108	0xbd38979f	-0.045066472
109	0xbdd63957	-0.104601555
110	0xbe06c7db	-0.13162176
111	0x3d8b0488	0.06787974
112	0x3d83fa89	0.0644427
113	0x3d86ad45	0.06576017
114	0x3df02b20	0.117269754
115	0xbcf28dd9	-0.029608654
116	0x3c98d711	0.01865724
117	0xbdd6c29f	-0.1048634
118	0xbdc9015f	-0.09814715
119	0xbbb7605e	-0.0055962047
120	0x3d482bb0	0.04886979
121	0xbb32043a	-0.0027163164
122	0x3d034aa3	0.0320536
123	0x39cbedb8	0.00038896292
124	0x3db620fc	0.0889301
125	0x3d8596f0	0.0652293
126	0xbd8e843b	-0.06958815
127	0xbdb18eeb	-0.086698376
128	0xbd8e566b	-0.06950077
129	0xbdbbe9e6	-0.09175472
130	0xbdef8238	-0.11694759
131	0xbd613c4b	-0.05498914
132	0x3e0d1b80	0.13780022
133	0x3e257757	0.16158806
134	0x3e8acca1	0.27109244
135	0xbca0de5d	-0.019637281
136	0xbce0159a	-0.02735405
137	0xbd8710a8	-0.06594974
138	0x3cbb2f38	0.022849664
139	0xbde22578	-0.11042303
140	0xbdd2b8fc	-0.10289189
141	0x3d813a04	0.06309894
142	0x3cd9a529	0.026568012
143	0xbd6a6734	-0.05722733
144	0x3cbb7eab	0.022887548
145	0x3bcb4631	0.006203436
146	0x3d6f60f5	0.058442075
147	0xbd821f9b	-0.063536845
148	0x3b99b26b	0.0046904585
149	0xbc4bbdb2	-0.012435364
150	0x3ceee10f	0.02916005
151	0x3e225a3f	0.15854739
152	0x3e3d6fd2	0.18499687
153	0xbb8057d0	-0.003916718
154	0x3ca342c7	0.019929303
155	0x3e245fdd	0.16052194
156	0x3db321e5	0.08746699
157	0x3d288e14	0.04115112
158	0x3d8bacf5	0.06820098
159	0x3d8a1498	0.06742209
160	0xbcb121ae	-0.021622505
161	0xbd571276	-0.05250784
162	0xbdb3bd6d	-0.087763645
163	0xbd969e30	-0.073543906
164	0x3dae50d5	0.08511511
165	0x3e1a3a12	0.15061215
166	0x3e489c35	0.19590838
167	0x3e45e7bb	0.1932668
168	0x3ddc36cf	0.107526414
169	0x3d62f535	0.05540963
170	0x3d8cb409	0.068702765
171	0x3e011ba6	0.12608203
172	0xbd3075f8	-0.043081254
173	0x3da10e17	0.078640155
174	0x3d85370f	0.06504642
175	0x3dffdeed	0.124936916
176	0x3e5ad989	0.21372046
177	0xbc9a0577	-0.018801434
178	0x3e2079c2	0.15671447
179	0x3de02b70	0.10945785
180	0x3d9e449f	0.07727932
181	0x3d7c5634	0.061605647
182	0x3de320a2	0.110902086
183	0x3e53495a	0.2063345
184	0x3e3f2d68	0.18669665
185	0x3e35502d	0.17706366
186	0x3e86e74a	0.26348335
187	0x3e8237f6	0.2543332
188	0x3eaa79ec	0.33296144
189	0x3e9942bd	0.2993373
190	0x3e98ee9e	0.2986955
191	0x3ec8990a	0.3917926
192	0x3cc7c5f4	0.024386384
193	0xbcc0de83	-0.023543602
194	0xbe0b1da8	-0.13585532
195	0x3e0b0e32	0.13579634
196	0x3de4aa0c	0.11165246
197	0xbce4ed68	-0.027945235
198	0xbe12746b	-0.14302222
199	0xbd8ef792	-0.06980814
200	0xbe3b9683	-0.18319134
201	0x3d4cf713	0.050040316
202	0x3dc22384	0.0947943
203	0x3de06308	0.10956389
204	0x3c14cba0	0.009081751
205	0xbe3e5260	-0.18586111
206	0xbe676403	-0.22596745
207	0xbd68668a	-0.056738414
208	0x3d93c5b8	0.07215446
209	0xbd7eb5ff	-0.062185284
210	0x3dcf000a	0.10107429
211	0x3d965c8e	0.07341872
212	0x3dad680b	0.0846711
213	0xbd86acd9	-0.06575937
214	0x3d44ddb5	0.048063
215	0xbdc95346	-0.09830336
216	0x3dc24983	0.094866775
217	0xbc27eb5c	-0.010248985
218	0x3dfa7324	0.122289926
219	0xbd95e6a4	-0.07319382
220	0x3ce7f2be	0.02831399
221	0x3c95c958	0.018284485
222	0x3c622e33	0.01380496
223	0x3ca7e393	0.020494258
224	0x3daa859a	0.08326264
225	0x3c1cca31	0.009569691
226	0xbd80ce73	-0.06289377
227	0xbe11bc7c	-0.14232057
228	0x3d9651b8	0.07339805
229	0x3e62859b	0.22121279
230	0x3e43036f	0.19044279
231	0x3b6a8524	0.0035784924
232	0xbc17e501	-0.009270907
233	0x3d29cedd	0.041457046
234	0x3d1048e0	0.03522575
235	0x3c3f6c9e	0.011683611
236	0x3dfff2f0	0.124975085
237	0x3e0689d3	0.13138513
238	0xbd710ec5	-0.058851976
239	0xbd984263	-0.07434537
240	0x3dab5456	0.08365695
241	0xbdc31255	-0.09524981
242	0xbd007a46	-0.03136661
243	0x3dbff7dc	0.09373447
244	0x3d7cd997	0.061730947
245	0x3e1c526e	0.1526582
246	0x3d443998	0.04790649
247	0x3df681bb	0.12036463
248	0x3d0fb2cb	0.03508262
249	0x3de47ee7	0.11157017
250	0xbd4f66ee	-0.05063527
251	0xbde0d3d2	-0.109779015
252	0x3e10c3ec	0.14137238
253	0x3da97868	0.08274919
254	0xbd4726ab	-0.04862086
255	0x3bd3c817	0.0064630616

conv.2.bias f4 [64]
0	0xbdb1983b	-0.08671614
1	0xbd4e85f0	-0.0504207
2	0xbbc13817	-0.005896579
3	0xbe023dc2	-0.12718871
4	0xbdb35ef9	-0.08758349
5	0x3d5e9b94	0.05434759
6	0xbd8236d8	-0.06358117
7	0xbcc11c4c	-0.023573063
8	0xbd066bd4	-0.032817677
9	0x3cce9184	0.025215872
10	0xbdc78672	-0.0974244
11	0xbd8d4bf5	-0.06899253
12	0x3da8a2fa	0.0823421
13	0xbe035a9e	-0.12827536
14	0xbc0a4e2e	-0.008441491
15	0x3d35c66d	0.044378687
16	0xbdb2a5f4	-0.08723059
17	0x3bb8bf37	0.005638029
18	0xbd3d8202	-0.046266563
19	0xbdfe3b10	-0.12413609
20	0x3cd00406	0.025392544
21	0xbd932609	-0.07184989
22	0x3d5738e2	0.052544482
23	0x3d841a31	0.06450308
24	0xbd83b77a	-0.0643148
25	0xbcc56d07	-0.02409984
26	0xbccba085	-0.024856815
27	0xbda4a65f	-0.08039545
28	0x3d59f116	0.053208433
29	0x3e00e0e9	0.12585796
30	0x3dbdfdb0	0.09276903
31	0x3ddaaa27	0.10676985
32	0x3de67563	0.112528585
33	0x3dd17a50	0.102284074
34	0x3cb5e508	0.022203937
35	0xbdef93fd	-0.116981484
36	0x3cced7af	0.02524933
37	0x3d63ec3b	0.05564521
38	0x3bbd0c3a	0.00576928
39	0x3d9b97db	0.075973235
40	0xbcec5d67	-0.028853131
41	0xbe1da999	-0.15396728
42	0xbd9fa744	-0.07795575
43	0x3e0fd216	0.14044985
44	0x3ddcb851	0.10777343
45	0xbdc36491	-0.09540666
46	0xbdb9b09d	-0.090668894
47	0x3e156576	0.14589486
48	0x3dd0eeb8	0.10201782
49	0x3c2106dc	0.009828296
50	0x3d8c01f7	0.06836312
51	0xbcd75f9a	-0.026290704
52	0x3d9524fb	0.07282444
53	0xbbb2527d	-0.0054419623
54	0x3dc1a13c	0.09454581
55	0xbd7fd60a	-0.062459983
56	0x3d435025	0.047683854
57	0xbd8f4480	-0.06995487
58	0x3b89bcf0	0.0042034313
59	0xbd2b110c	-0.041764304
60	0xbbe856e2	-0.0070904354
61	0xbd5e66be	-0.0542972
62	0xbd7126ae	-0.05887478
63	0xbdc3eb5e	-0.09566377

fc.weight f4 [1, 64]
0	0xbe3e72d6	-0.18598494
1	0xbe1f5787	-0.15560733
2	0xbe661acc	-0.2247116
3	0xbe6553c1	-0.22395231
4	0xbe4135d4	-0.1886819
5	0x3e1b4a35	0.15165026
6	0xbdd2f782	-0.103011146
7	0x3e453c79	0.1926135
8	0x3e4b0aea	0.19828382
9	0xbe84dbe3	-0.2594901
10	0xbe1a24b4	-0.15053064
11	0x3e7f9c87	0.24962054
12	0x3e15ed63	0.14641337
13	0xbe00acff	-0.12565993
14	0x3e18965f	0.14901112
15	0xbe9ae7d1	-0.30254987
16	0xbe112ca2	-0.14177182
17	0x3e05b749	0.13058199
18	0x3dd5d178	0.104403436
19	0xbe3c0caf	-0.18364213
20	0xbe5cc5c6	-0.2155982
21	0x3f0197ed	0.50622445
22	0xbe3a14bb	-0.1817197
23	0x3f5ec416	0.87017953
24	0xbe383cc5	-0.17991932
25	0xbdd7830a	-0.105230406
26	0xbe9f9187	-0.31165716
27	0xbe027a4f	-0.1274197
28	0xbdc8a56d	-0.097971775
29	0x3de3b009	0.111175604
30	0x3dd0a387	0.1018744
31	0xbe4acaf5	-0.19803984
32	0x3d743145	0.0596173
33	0x3e104e4f	0.14092372
34	0xbe12600c	-0.14294451
35	0xbe2b9d5e	-0.1675925
36	0xbe7dfee5	-0.24804266
37	0xbe28bef2	-0.1647909
38	0xbe1fe438	-0.15614402
39	0x3e0aa039	0.13537683
40	0x3d924123	0.0714133
41	0xbdc99286	-0.098424
42	0xbe79c883	-0.24392895
43	0x3e698c87	0.22807513
44	0x3e361195	0.17780145
45	0xbe32aed2	-0.17449501
46	0xbdfb754f	-0.12278234
47	0xbf2bacef	-0.6706075
48	0xbe1f01b6	-0.15527996
49	0x3dd64d22	0.10463931
50	0x3f7ec658	0.995214
51	0x3ef9154e	0.48649067
52	0xbea1d8da	-0.31610757
53	0xbdfa596a	-0.12224086
54	0xbe8cfaca	-0.27535087
55	0xbe619a50	-0.22031522
56	0x3f640624	0.8907187
57	0xbe420801	-0.18948366
58	0x3dcb252b	0.099191986
59	0x3f650763	0.89464396
60	0xbe68d252	-0.22736481
61	0xbe310160	-0.17285681
62	0xbe0ba5b0	-0.13637424
63	0xbe775b3b	-0.24155895
